node {
  name: "global_step/initial_value"
  op: "Const"
  attr {
    key: "_output_shapes"
    value {
      list {
        shape {
        }
      }
    }
  }
  attr {
    key: "dtype"
    value {
      type: DT_INT32
    }
  }
  attr {
    key: "value"
    value {
      tensor {
        dtype: DT_INT32
        tensor_shape {
        }
        int_val: 0
      }
    }
  }
}
node {
  name: "global_step"
  op: "VariableV2"
  attr {
    key: "_output_shapes"
    value {
      list {
        shape {
        }
      }
    }
  }
  attr {
    key: "container"
    value {
      s: ""
    }
  }
  attr {
    key: "dtype"
    value {
      type: DT_INT32
    }
  }
  attr {
    key: "shape"
    value {
      shape {
      }
    }
  }
  attr {
    key: "shared_name"
    value {
      s: ""
    }
  }
}
node {
  name: "global_step/Assign"
  op: "Assign"
  input: "global_step"
  input: "global_step/initial_value"
  attr {
    key: "T"
    value {
      type: DT_INT32
    }
  }
  attr {
    key: "_class"
    value {
      list {
        s: "loc:@global_step"
      }
    }
  }
  attr {
    key: "_output_shapes"
    value {
      list {
        shape {
        }
      }
    }
  }
  attr {
    key: "use_locking"
    value {
      b: true
    }
  }
  attr {
    key: "validate_shape"
    value {
      b: true
    }
  }
}
node {
  name: "global_step/read"
  op: "Identity"
  input: "global_step"
  attr {
    key: "T"
    value {
      type: DT_INT32
    }
  }
  attr {
    key: "_class"
    value {
      list {
        s: "loc:@global_step"
      }
    }
  }
  attr {
    key: "_output_shapes"
    value {
      list {
        shape {
        }
      }
    }
  }
}
node {
  name: "mul/y"
  op: "Const"
  attr {
    key: "_output_shapes"
    value {
      list {
        shape {
        }
      }
    }
  }
  attr {
    key: "dtype"
    value {
      type: DT_INT32
    }
  }
  attr {
    key: "value"
    value {
      tensor {
        dtype: DT_INT32
        tensor_shape {
        }
        int_val: 1024
      }
    }
  }
}
node {
  name: "mul"
  op: "Mul"
  input: "global_step/read"
  input: "mul/y"
  attr {
    key: "T"
    value {
      type: DT_INT32
    }
  }
  attr {
    key: "_output_shapes"
    value {
      list {
        shape {
        }
      }
    }
  }
}
node {
  name: "mul_1/y"
  op: "Const"
  attr {
    key: "_output_shapes"
    value {
      list {
        shape {
        }
      }
    }
  }
  attr {
    key: "dtype"
    value {
      type: DT_INT32
    }
  }
  attr {
    key: "value"
    value {
      tensor {
        dtype: DT_INT32
        tensor_shape {
        }
        int_val: 1
      }
    }
  }
}
node {
  name: "mul_1"
  op: "Mul"
  input: "mul"
  input: "mul_1/y"
  attr {
    key: "T"
    value {
      type: DT_INT32
    }
  }
  attr {
    key: "_output_shapes"
    value {
      list {
        shape {
        }
      }
    }
  }
}
node {
  name: "ExponentialDecay/initial_learning_rate"
  op: "Const"
  attr {
    key: "_output_shapes"
    value {
      list {
        shape {
        }
      }
    }
  }
  attr {
    key: "dtype"
    value {
      type: DT_FLOAT
    }
  }
  attr {
    key: "value"
    value {
      tensor {
        dtype: DT_FLOAT
        tensor_shape {
        }
        float_val: 0.009999999776482582
      }
    }
  }
}
node {
  name: "ExponentialDecay/Cast/x"
  op: "Const"
  attr {
    key: "_output_shapes"
    value {
      list {
        shape {
        }
      }
    }
  }
  attr {
    key: "dtype"
    value {
      type: DT_FLOAT
    }
  }
  attr {
    key: "value"
    value {
      tensor {
        dtype: DT_FLOAT
        tensor_shape {
        }
        float_val: 4000000.0
      }
    }
  }
}
node {
  name: "ExponentialDecay/Cast_1/x"
  op: "Const"
  attr {
    key: "_output_shapes"
    value {
      list {
        shape {
        }
      }
    }
  }
  attr {
    key: "dtype"
    value {
      type: DT_FLOAT
    }
  }
  attr {
    key: "value"
    value {
      tensor {
        dtype: DT_FLOAT
        tensor_shape {
        }
        float_val: 0.949999988079071
      }
    }
  }
}
node {
  name: "ExponentialDecay/Cast_2"
  op: "Cast"
  input: "mul_1"
  attr {
    key: "DstT"
    value {
      type: DT_FLOAT
    }
  }
  attr {
    key: "SrcT"
    value {
      type: DT_INT32
    }
  }
  attr {
    key: "Truncate"
    value {
      b: false
    }
  }
  attr {
    key: "_output_shapes"
    value {
      list {
        shape {
        }
      }
    }
  }
}
node {
  name: "ExponentialDecay/truediv"
  op: "RealDiv"
  input: "ExponentialDecay/Cast_2"
  input: "ExponentialDecay/Cast/x"
  attr {
    key: "T"
    value {
      type: DT_FLOAT
    }
  }
  attr {
    key: "_output_shapes"
    value {
      list {
        shape {
        }
      }
    }
  }
}
node {
  name: "ExponentialDecay/Floor"
  op: "Floor"
  input: "ExponentialDecay/truediv"
  attr {
    key: "T"
    value {
      type: DT_FLOAT
    }
  }
  attr {
    key: "_output_shapes"
    value {
      list {
        shape {
        }
      }
    }
  }
}
node {
  name: "ExponentialDecay/Pow"
  op: "Pow"
  input: "ExponentialDecay/Cast_1/x"
  input: "ExponentialDecay/Floor"
  attr {
    key: "T"
    value {
      type: DT_FLOAT
    }
  }
  attr {
    key: "_output_shapes"
    value {
      list {
        shape {
        }
      }
    }
  }
}
node {
  name: "ExponentialDecay"
  op: "Mul"
  input: "ExponentialDecay/initial_learning_rate"
  input: "ExponentialDecay/Pow"
  attr {
    key: "T"
    value {
      type: DT_FLOAT
    }
  }
  attr {
    key: "_output_shapes"
    value {
      list {
        shape {
        }
      }
    }
  }
}
node {
  name: "learning_rate/tags"
  op: "Const"
  attr {
    key: "_output_shapes"
    value {
      list {
        shape {
        }
      }
    }
  }
  attr {
    key: "dtype"
    value {
      type: DT_STRING
    }
  }
  attr {
    key: "value"
    value {
      tensor {
        dtype: DT_STRING
        tensor_shape {
        }
        string_val: "learning_rate"
      }
    }
  }
}
node {
  name: "learning_rate"
  op: "ScalarSummary"
  input: "learning_rate/tags"
  input: "ExponentialDecay"
  attr {
    key: "T"
    value {
      type: DT_FLOAT
    }
  }
  attr {
    key: "_output_shapes"
    value {
      list {
        shape {
        }
      }
    }
  }
}
node {
  name: "train_input/input_producer/Const"
  op: "Const"
  attr {
    key: "_output_shapes"
    value {
      list {
        shape {
          dim {
            size: 3844
          }
        }
      }
    }
  }
  attr {
    key: "dtype"
    value {
      type: DT_STRING
    }
  }
  attr {
    key: "value"
    value {
      tensor {
        dtype: DT_STRING
        tensor_shape {
          dim {
            size: 3844
          }
        }
        string_val: "gs://youtube8m-ml/2/frame/train/train00.tfrecord"
        string_val: "gs://youtube8m-ml/2/frame/train/train01.tfrecord"
        string_val: "gs://youtube8m-ml/2/frame/train/train02.tfrecord"
        string_val: "gs://youtube8m-ml/2/frame/train/train03.tfrecord"
        string_val: "gs://youtube8m-ml/2/frame/train/train04.tfrecord"
        string_val: "gs://youtube8m-ml/2/frame/train/train05.tfrecord"
        string_val: "gs://youtube8m-ml/2/frame/train/train06.tfrecord"
        string_val: "gs://youtube8m-ml/2/frame/train/train07.tfrecord"
        string_val: "gs://youtube8m-ml/2/frame/train/train08.tfrecord"
        string_val: "gs://youtube8m-ml/2/frame/train/train09.tfrecord"
        string_val: "gs://youtube8m-ml/2/frame/train/train0A.tfrecord"
        string_val: "gs://youtube8m-ml/2/frame/train/train0B.tfrecord"
        string_val: "gs://youtube8m-ml/2/frame/train/train0C.tfrecord"
        string_val: "gs://youtube8m-ml/2/frame/train/train0D.tfrecord"
        string_val: "gs://youtube8m-ml/2/frame/train/train0E.tfrecord"
        string_val: "gs://youtube8m-ml/2/frame/train/train0F.tfrecord"
        string_val: "gs://youtube8m-ml/2/frame/train/train0G.tfrecord"
        string_val: "gs://youtube8m-ml/2/frame/train/train0H.tfrecord"
        string_val: "gs://youtube8m-ml/2/frame/train/train0I.tfrecord"
        string_val: "gs://youtube8m-ml/2/frame/train/train0J.tfrecord"
        string_val: "gs://youtube8m-ml/2/frame/train/train0K.tfrecord"
        string_val: "gs://youtube8m-ml/2/frame/train/train0L.tfrecord"
        string_val: "gs://youtube8m-ml/2/frame/train/train0M.tfrecord"
        string_val: "gs://youtube8m-ml/2/frame/train/train0N.tfrecord"
        string_val: "gs://youtube8m-ml/2/frame/train/train0O.tfrecord"
        string_val: "gs://youtube8m-ml/2/frame/train/train0P.tfrecord"
        string_val: "gs://youtube8m-ml/2/frame/train/train0Q.tfrecord"
        string_val: "gs://youtube8m-ml/2/frame/train/train0R.tfrecord"
        string_val: "gs://youtube8m-ml/2/frame/train/train0S.tfrecord"
        string_val: "gs://youtube8m-ml/2/frame/train/train0T.tfrecord"
        string_val: "gs://youtube8m-ml/2/frame/train/train0U.tfrecord"
        string_val: "gs://youtube8m-ml/2/frame/train/train0V.tfrecord"
        string_val: "gs://youtube8m-ml/2/frame/train/train0W.tfrecord"
        string_val: "gs://youtube8m-ml/2/frame/train/train0X.tfrecord"
        string_val: "gs://youtube8m-ml/2/frame/train/train0Y.tfrecord"
        string_val: "gs://youtube8m-ml/2/frame/train/train0Z.tfrecord"
        string_val: "gs://youtube8m-ml/2/frame/train/train0a.tfrecord"
        string_val: "gs://youtube8m-ml/2/frame/train/train0b.tfrecord"
        string_val: "gs://youtube8m-ml/2/frame/train/train0c.tfrecord"
        string_val: "gs://youtube8m-ml/2/frame/train/train0d.tfrecord"
        string_val: "gs://youtube8m-ml/2/frame/train/train0e.tfrecord"
        string_val: "gs://youtube8m-ml/2/frame/train/train0f.tfrecord"
        string_val: "gs://youtube8m-ml/2/frame/train/train0g.tfrecord"
        string_val: "gs://youtube8m-ml/2/frame/train/train0h.tfrecord"
        string_val: "gs://youtube8m-ml/2/frame/train/train0i.tfrecord"
        string_val: "gs://youtube8m-ml/2/frame/train/train0j.tfrecord"
        string_val: "gs://youtube8m-ml/2/frame/train/train0k.tfrecord"
        string_val: "gs://youtube8m-ml/2/frame/train/train0l.tfrecord"
        string_val: "gs://youtube8m-ml/2/frame/train/train0m.tfrecord"
        string_val: "gs://youtube8m-ml/2/frame/train/train0n.tfrecord"
        string_val: "gs://youtube8m-ml/2/frame/train/train0o.tfrecord"
        string_val: "gs://youtube8m-ml/2/frame/train/train0p.tfrecord"
        string_val: "gs://youtube8m-ml/2/frame/train/train0q.tfrecord"
        string_val: "gs://youtube8m-ml/2/frame/train/train0r.tfrecord"
        string_val: "gs://youtube8m-ml/2/frame/train/train0s.tfrecord"
        string_val: "gs://youtube8m-ml/2/frame/train/train0t.tfrecord"
        string_val: "gs://youtube8m-ml/2/frame/train/train0u.tfrecord"
        string_val: "gs://youtube8m-ml/2/frame/train/train0v.tfrecord"
        string_val: "gs://youtube8m-ml/2/frame/train/train0w.tfrecord"
        string_val: "gs://youtube8m-ml/2/frame/train/train0x.tfrecord"
        string_val: "gs://youtube8m-ml/2/frame/train/train0y.tfrecord"
        string_val: "gs://youtube8m-ml/2/frame/train/train0z.tfrecord"
        string_val: "gs://youtube8m-ml/2/frame/train/train10.tfrecord"
        string_val: "gs://youtube8m-ml/2/frame/train/train11.tfrecord"
        string_val: "gs://youtube8m-ml/2/frame/train/train12.tfrecord"
        string_val: "gs://youtube8m-ml/2/frame/train/train13.tfrecord"
        string_val: "gs://youtube8m-ml/2/frame/train/train14.tfrecord"
        string_val: "gs://youtube8m-ml/2/frame/train/train15.tfrecord"
        string_val: "gs://youtube8m-ml/2/frame/train/train16.tfrecord"
        string_val: "gs://youtube8m-ml/2/frame/train/train17.tfrecord"
        string_val: "gs://youtube8m-ml/2/frame/train/train18.tfrecord"
        string_val: "gs://youtube8m-ml/2/frame/train/train19.tfrecord"
        string_val: "gs://youtube8m-ml/2/frame/train/train1A.tfrecord"
        string_val: "gs://youtube8m-ml/2/frame/train/train1B.tfrecord"
        string_val: "gs://youtube8m-ml/2/frame/train/train1C.tfrecord"
        string_val: "gs://youtube8m-ml/2/frame/train/train1D.tfrecord"
        string_val: "gs://youtube8m-ml/2/frame/train/train1E.tfrecord"
        string_val: "gs://youtube8m-ml/2/frame/train/train1F.tfrecord"
        string_val: "gs://youtube8m-ml/2/frame/train/train1G.tfrecord"
        string_val: "gs://youtube8m-ml/2/frame/train/train1H.tfrecord"
        string_val: "gs://youtube8m-ml/2/frame/train/train1I.tfrecord"
        string_val: "gs://youtube8m-ml/2/frame/train/train1J.tfrecord"
        string_val: "gs://youtube8m-ml/2/frame/train/train1K.tfrecord"
        string_val: "gs://youtube8m-ml/2/frame/train/train1L.tfrecord"
        string_val: "gs://youtube8m-ml/2/frame/train/train1M.tfrecord"
        string_val: "gs://youtube8m-ml/2/frame/train/train1N.tfrecord"
        string_val: "gs://youtube8m-ml/2/frame/train/train1O.tfrecord"
        string_val: "gs://youtube8m-ml/2/frame/train/train1P.tfrecord"
        string_val: "gs://youtube8m-ml/2/frame/train/train1Q.tfrecord"
        string_val: "gs://youtube8m-ml/2/frame/train/train1R.tfrecord"
        string_val: "gs://youtube8m-ml/2/frame/train/train1S.tfrecord"
        string_val: "gs://youtube8m-ml/2/frame/train/train1T.tfrecord"
        string_val: "gs://youtube8m-ml/2/frame/train/train1U.tfrecord"
        string_val: "gs://youtube8m-ml/2/frame/train/train1V.tfrecord"
        string_val: "gs://youtube8m-ml/2/frame/train/train1W.tfrecord"
        string_val: "gs://youtube8m-ml/2/frame/train/train1X.tfrecord"
        string_val: "gs://youtube8m-ml/2/frame/train/train1Y.tfrecord"
        string_val: "gs://youtube8m-ml/2/frame/train/train1Z.tfrecord"
        string_val: "gs://youtube8m-ml/2/frame/train/train1a.tfrecord"
        string_val: "gs://youtube8m-ml/2/frame/train/train1b.tfrecord"
        string_val: "gs://youtube8m-ml/2/frame/train/train1c.tfrecord"
        string_val: "gs://youtube8m-ml/2/frame/train/train1d.tfrecord"
        string_val: "gs://youtube8m-ml/2/frame/train/train1e.tfrecord"
        string_val: "gs://youtube8m-ml/2/frame/train/train1f.tfrecord"
        string_val: "gs://youtube8m-ml/2/frame/train/train1g.tfrecord"
        string_val: "gs://youtube8m-ml/2/frame/train/train1h.tfrecord"
        string_val: "gs://youtube8m-ml/2/frame/train/train1i.tfrecord"
        string_val: "gs://youtube8m-ml/2/frame/train/train1j.tfrecord"
        string_val: "gs://youtube8m-ml/2/frame/train/train1k.tfrecord"
        string_val: "gs://youtube8m-ml/2/frame/train/train1l.tfrecord"
        string_val: "gs://youtube8m-ml/2/frame/train/train1m.tfrecord"
        string_val: "gs://youtube8m-ml/2/frame/train/train1n.tfrecord"
        string_val: "gs://youtube8m-ml/2/frame/train/train1o.tfrecord"
        string_val: "gs://youtube8m-ml/2/frame/train/train1p.tfrecord"
        string_val: "gs://youtube8m-ml/2/frame/train/train1q.tfrecord"
        string_val: "gs://youtube8m-ml/2/frame/train/train1r.tfrecord"
        string_val: "gs://youtube8m-ml/2/frame/train/train1s.tfrecord"
        string_val: "gs://youtube8m-ml/2/frame/train/train1t.tfrecord"
        string_val: "gs://youtube8m-ml/2/frame/train/train1u.tfrecord"
        string_val: "gs://youtube8m-ml/2/frame/train/train1v.tfrecord"
        string_val: "gs://youtube8m-ml/2/frame/train/train1w.tfrecord"
        string_val: "gs://youtube8m-ml/2/frame/train/train1x.tfrecord"
        string_val: "gs://youtube8m-ml/2/frame/train/train1y.tfrecord"
        string_val: "gs://youtube8m-ml/2/frame/train/train1z.tfrecord"
        string_val: "gs://youtube8m-ml/2/frame/train/train20.tfrecord"
        string_val: "gs://youtube8m-ml/2/frame/train/train21.tfrecord"
        string_val: "gs://youtube8m-ml/2/frame/train/train22.tfrecord"
        string_val: "gs://youtube8m-ml/2/frame/train/train23.tfrecord"
        string_val: "gs://youtube8m-ml/2/frame/train/train24.tfrecord"
        string_val: "gs://youtube8m-ml/2/frame/train/train25.tfrecord"
        string_val: "gs://youtube8m-ml/2/frame/train/train26.tfrecord"
        string_val: "gs://youtube8m-ml/2/frame/train/train27.tfrecord"
        string_val: "gs://youtube8m-ml/2/frame/train/train28.tfrecord"
        string_val: "gs://youtube8m-ml/2/frame/train/train29.tfrecord"
        string_val: "gs://youtube8m-ml/2/frame/train/train2A.tfrecord"
        string_val: "gs://youtube8m-ml/2/frame/train/train2B.tfrecord"
        string_val: "gs://youtube8m-ml/2/frame/train/train2C.tfrecord"
        string_val: "gs://youtube8m-ml/2/frame/train/train2D.tfrecord"
        string_val: "gs://youtube8m-ml/2/frame/train/train2E.tfrecord"
        string_val: "gs://youtube8m-ml/2/frame/train/train2F.tfrecord"
        string_val: "gs://youtube8m-ml/2/frame/train/train2G.tfrecord"
        string_val: "gs://youtube8m-ml/2/frame/train/train2H.tfrecord"
        string_val: "gs://youtube8m-ml/2/frame/train/train2I.tfrecord"
        string_val: "gs://youtube8m-ml/2/frame/train/train2J.tfrecord"
        string_val: "gs://youtube8m-ml/2/frame/train/train2K.tfrecord"
        string_val: "gs://youtube8m-ml/2/frame/train/train2L.tfrecord"
        string_val: "gs://youtube8m-ml/2/frame/train/train2M.tfrecord"
        string_val: "gs://youtube8m-ml/2/frame/train/train2N.tfrecord"
        string_val: "gs://youtube8m-ml/2/frame/train/train2O.tfrecord"
        string_val: "gs://youtube8m-ml/2/frame/train/train2P.tfrecord"
        string_val: "gs://youtube8m-ml/2/frame/train/train2Q.tfrecord"
        string_val: "gs://youtube8m-ml/2/frame/train/train2R.tfrecord"
        string_val: "gs://youtube8m-ml/2/frame/train/train2S.tfrecord"
        string_val: "gs://youtube8m-ml/2/frame/train/train2T.tfrecord"
        string_val: "gs://youtube8m-ml/2/frame/train/train2U.tfrecord"
        string_val: "gs://youtube8m-ml/2/frame/train/train2V.tfrecord"
        string_val: "gs://youtube8m-ml/2/frame/train/train2W.tfrecord"
        string_val: "gs://youtube8m-ml/2/frame/train/train2X.tfrecord"
        string_val: "gs://youtube8m-ml/2/frame/train/train2Y.tfrecord"
        string_val: "gs://youtube8m-ml/2/frame/train/train2Z.tfrecord"
        string_val: "gs://youtube8m-ml/2/frame/train/train2a.tfrecord"
        string_val: "gs://youtube8m-ml/2/frame/train/train2b.tfrecord"
        string_val: "gs://youtube8m-ml/2/frame/train/train2c.tfrecord"
        string_val: "gs://youtube8m-ml/2/frame/train/train2d.tfrecord"
        string_val: "gs://youtube8m-ml/2/frame/train/train2e.tfrecord"
        string_val: "gs://youtube8m-ml/2/frame/train/train2f.tfrecord"
        string_val: "gs://youtube8m-ml/2/frame/train/train2g.tfrecord"
        string_val: "gs://youtube8m-ml/2/frame/train/train2h.tfrecord"
        string_val: "gs://youtube8m-ml/2/frame/train/train2i.tfrecord"
        string_val: "gs://youtube8m-ml/2/frame/train/train2j.tfrecord"
        string_val: "gs://youtube8m-ml/2/frame/train/train2k.tfrecord"
        string_val: "gs://youtube8m-ml/2/frame/train/train2l.tfrecord"
        string_val: "gs://youtube8m-ml/2/frame/train/train2m.tfrecord"
        string_val: "gs://youtube8m-ml/2/frame/train/train2n.tfrecord"
        string_val: "gs://youtube8m-ml/2/frame/train/train2o.tfrecord"
        string_val: "gs://youtube8m-ml/2/frame/train/train2p.tfrecord"
        string_val: "gs://youtube8m-ml/2/frame/train/train2q.tfrecord"
        string_val: "gs://youtube8m-ml/2/frame/train/train2r.tfrecord"
        string_val: "gs://youtube8m-ml/2/frame/train/train2s.tfrecord"
        string_val: "gs://youtube8m-ml/2/frame/train/train2t.tfrecord"
        string_val: "gs://youtube8m-ml/2/frame/train/train2u.tfrecord"
        string_val: "gs://youtube8m-ml/2/frame/train/train2v.tfrecord"
        string_val: "gs://youtube8m-ml/2/frame/train/train2w.tfrecord"
        string_val: "gs://youtube8m-ml/2/frame/train/train2x.tfrecord"
        string_val: "gs://youtube8m-ml/2/frame/train/train2y.tfrecord"
        string_val: "gs://youtube8m-ml/2/frame/train/train2z.tfrecord"
        string_val: "gs://youtube8m-ml/2/frame/train/train30.tfrecord"
        string_val: "gs://youtube8m-ml/2/frame/train/train31.tfrecord"
        string_val: "gs://youtube8m-ml/2/frame/train/train32.tfrecord"
        string_val: "gs://youtube8m-ml/2/frame/train/train33.tfrecord"
        string_val: "gs://youtube8m-ml/2/frame/train/train34.tfrecord"
        string_val: "gs://youtube8m-ml/2/frame/train/train35.tfrecord"
        string_val: "gs://youtube8m-ml/2/frame/train/train36.tfrecord"
        string_val: "gs://youtube8m-ml/2/frame/train/train37.tfrecord"
        string_val: "gs://youtube8m-ml/2/frame/train/train38.tfrecord"
        string_val: "gs://youtube8m-ml/2/frame/train/train39.tfrecord"
        string_val: "gs://youtube8m-ml/2/frame/train/train3A.tfrecord"
        string_val: "gs://youtube8m-ml/2/frame/train/train3B.tfrecord"
        string_val: "gs://youtube8m-ml/2/frame/train/train3C.tfrecord"
        string_val: "gs://youtube8m-ml/2/frame/train/train3D.tfrecord"
        string_val: "gs://youtube8m-ml/2/frame/train/train3E.tfrecord"
        string_val: "gs://youtube8m-ml/2/frame/train/train3F.tfrecord"
        string_val: "gs://youtube8m-ml/2/frame/train/train3G.tfrecord"
        string_val: "gs://youtube8m-ml/2/frame/train/train3H.tfrecord"
        string_val: "gs://youtube8m-ml/2/frame/train/train3I.tfrecord"
        string_val: "gs://youtube8m-ml/2/frame/train/train3J.tfrecord"
        string_val: "gs://youtube8m-ml/2/frame/train/train3K.tfrecord"
        string_val: "gs://youtube8m-ml/2/frame/train/train3L.tfrecord"
        string_val: "gs://youtube8m-ml/2/frame/train/train3M.tfrecord"
        string_val: "gs://youtube8m-ml/2/frame/train/train3N.tfrecord"
        string_val: "gs://youtube8m-ml/2/frame/train/train3O.tfrecord"
        string_val: "gs://youtube8m-ml/2/frame/train/train3P.tfrecord"
        string_val: "gs://youtube8m-ml/2/frame/train/train3Q.tfrecord"
        string_val: "gs://youtube8m-ml/2/frame/train/train3R.tfrecord"
        string_val: "gs://youtube8m-ml/2/frame/train/train3S.tfrecord"
        string_val: "gs://youtube8m-ml/2/frame/train/train3T.tfrecord"
        string_val: "gs://youtube8m-ml/2/frame/train/train3U.tfrecord"
        string_val: "gs://youtube8m-ml/2/frame/train/train3V.tfrecord"
        string_val: "gs://youtube8m-ml/2/frame/train/train3W.tfrecord"
        string_val: "gs://youtube8m-ml/2/frame/train/train3X.tfrecord"
        string_val: "gs://youtube8m-ml/2/frame/train/train3Y.tfrecord"
        string_val: "gs://youtube8m-ml/2/frame/train/train3Z.tfrecord"
        string_val: "gs://youtube8m-ml/2/frame/train/train3a.tfrecord"
        string_val: "gs://youtube8m-ml/2/frame/train/train3b.tfrecord"
        string_val: "gs://youtube8m-ml/2/frame/train/train3c.tfrecord"
        string_val: "gs://youtube8m-ml/2/frame/train/train3d.tfrecord"
        string_val: "gs://youtube8m-ml/2/frame/train/train3e.tfrecord"
        string_val: "gs://youtube8m-ml/2/frame/train/train3f.tfrecord"
        string_val: "gs://youtube8m-ml/2/frame/train/train3g.tfrecord"
        string_val: "gs://youtube8m-ml/2/frame/train/train3h.tfrecord"
        string_val: "gs://youtube8m-ml/2/frame/train/train3i.tfrecord"
        string_val: "gs://youtube8m-ml/2/frame/train/train3j.tfrecord"
        string_val: "gs://youtube8m-ml/2/frame/train/train3k.tfrecord"
        string_val: "gs://youtube8m-ml/2/frame/train/train3l.tfrecord"
        string_val: "gs://youtube8m-ml/2/frame/train/train3m.tfrecord"
        string_val: "gs://youtube8m-ml/2/frame/train/train3n.tfrecord"
        string_val: "gs://youtube8m-ml/2/frame/train/train3o.tfrecord"
        string_val: "gs://youtube8m-ml/2/frame/train/train3p.tfrecord"
        string_val: "gs://youtube8m-ml/2/frame/train/train3q.tfrecord"
        string_val: "gs://youtube8m-ml/2/frame/train/train3r.tfrecord"
        string_val: "gs://youtube8m-ml/2/frame/train/train3s.tfrecord"
        string_val: "gs://youtube8m-ml/2/frame/train/train3t.tfrecord"
        string_val: "gs://youtube8m-ml/2/frame/train/train3u.tfrecord"
        string_val: "gs://youtube8m-ml/2/frame/train/train3v.tfrecord"
        string_val: "gs://youtube8m-ml/2/frame/train/train3w.tfrecord"
        string_val: "gs://youtube8m-ml/2/frame/train/train3x.tfrecord"
        string_val: "gs://youtube8m-ml/2/frame/train/train3y.tfrecord"
        string_val: "gs://youtube8m-ml/2/frame/train/train3z.tfrecord"
        string_val: "gs://youtube8m-ml/2/frame/train/train40.tfrecord"
        string_val: "gs://youtube8m-ml/2/frame/train/train41.tfrecord"
        string_val: "gs://youtube8m-ml/2/frame/train/train42.tfrecord"
        string_val: "gs://youtube8m-ml/2/frame/train/train43.tfrecord"
        string_val: "gs://youtube8m-ml/2/frame/train/train44.tfrecord"
        string_val: "gs://youtube8m-ml/2/frame/train/train45.tfrecord"
        string_val: "gs://youtube8m-ml/2/frame/train/train46.tfrecord"
        string_val: "gs://youtube8m-ml/2/frame/train/train47.tfrecord"
        string_val: "gs://youtube8m-ml/2/frame/train/train48.tfrecord"
        string_val: "gs://youtube8m-ml/2/frame/train/train49.tfrecord"
        string_val: "gs://youtube8m-ml/2/frame/train/train4A.tfrecord"
        string_val: "gs://youtube8m-ml/2/frame/train/train4B.tfrecord"
        string_val: "gs://youtube8m-ml/2/frame/train/train4C.tfrecord"
        string_val: "gs://youtube8m-ml/2/frame/train/train4D.tfrecord"
        string_val: "gs://youtube8m-ml/2/frame/train/train4E.tfrecord"
        string_val: "gs://youtube8m-ml/2/frame/train/train4F.tfrecord"
        string_val: "gs://youtube8m-ml/2/frame/train/train4G.tfrecord"
        string_val: "gs://youtube8m-ml/2/frame/train/train4H.tfrecord"
        string_val: "gs://youtube8m-ml/2/frame/train/train4I.tfrecord"
        string_val: "gs://youtube8m-ml/2/frame/train/train4J.tfrecord"
        string_val: "gs://youtube8m-ml/2/frame/train/train4K.tfrecord"
        string_val: "gs://youtube8m-ml/2/frame/train/train4L.tfrecord"
        string_val: "gs://youtube8m-ml/2/frame/train/train4M.tfrecord"
        string_val: "gs://youtube8m-ml/2/frame/train/train4N.tfrecord"
        string_val: "gs://youtube8m-ml/2/frame/train/train4O.tfrecord"
        string_val: "gs://youtube8m-ml/2/frame/train/train4P.tfrecord"
        string_val: "gs://youtube8m-ml/2/frame/train/train4Q.tfrecord"
        string_val: "gs://youtube8m-ml/2/frame/train/train4R.tfrecord"
        string_val: "gs://youtube8m-ml/2/frame/train/train4S.tfrecord"
        string_val: "gs://youtube8m-ml/2/frame/train/train4T.tfrecord"
        string_val: "gs://youtube8m-ml/2/frame/train/train4U.tfrecord"
        string_val: "gs://youtube8m-ml/2/frame/train/train4V.tfrecord"
        string_val: "gs://youtube8m-ml/2/frame/train/train4W.tfrecord"
        string_val: "gs://youtube8m-ml/2/frame/train/train4X.tfrecord"
        string_val: "gs://youtube8m-ml/2/frame/train/train4Y.tfrecord"
        string_val: "gs://youtube8m-ml/2/frame/train/train4Z.tfrecord"
        string_val: "gs://youtube8m-ml/2/frame/train/train4a.tfrecord"
        string_val: "gs://youtube8m-ml/2/frame/train/train4b.tfrecord"
        string_val: "gs://youtube8m-ml/2/frame/train/train4c.tfrecord"
        string_val: "gs://youtube8m-ml/2/frame/train/train4d.tfrecord"
        string_val: "gs://youtube8m-ml/2/frame/train/train4e.tfrecord"
        string_val: "gs://youtube8m-ml/2/frame/train/train4f.tfrecord"
        string_val: "gs://youtube8m-ml/2/frame/train/train4g.tfrecord"
        string_val: "gs://youtube8m-ml/2/frame/train/train4h.tfrecord"
        string_val: "gs://youtube8m-ml/2/frame/train/train4i.tfrecord"
        string_val: "gs://youtube8m-ml/2/frame/train/train4j.tfrecord"
        string_val: "gs://youtube8m-ml/2/frame/train/train4k.tfrecord"
        string_val: "gs://youtube8m-ml/2/frame/train/train4l.tfrecord"
        string_val: "gs://youtube8m-ml/2/frame/train/train4m.tfrecord"
        string_val: "gs://youtube8m-ml/2/frame/train/train4n.tfrecord"
        string_val: "gs://youtube8m-ml/2/frame/train/train4o.tfrecord"
        string_val: "gs://youtube8m-ml/2/frame/train/train4p.tfrecord"
        string_val: "gs://youtube8m-ml/2/frame/train/train4q.tfrecord"
        string_val: "gs://youtube8m-ml/2/frame/train/train4r.tfrecord"
        string_val: "gs://youtube8m-ml/2/frame/train/train4s.tfrecord"
        string_val: "gs://youtube8m-ml/2/frame/train/train4t.tfrecord"
        string_val: "gs://youtube8m-ml/2/frame/train/train4u.tfrecord"
        string_val: "gs://youtube8m-ml/2/frame/train/train4v.tfrecord"
        string_val: "gs://youtube8m-ml/2/frame/train/train4w.tfrecord"
        string_val: "gs://youtube8m-ml/2/frame/train/train4x.tfrecord"
        string_val: "gs://youtube8m-ml/2/frame/train/train4y.tfrecord"
        string_val: "gs://youtube8m-ml/2/frame/train/train4z.tfrecord"
        string_val: "gs://youtube8m-ml/2/frame/train/train50.tfrecord"
        string_val: "gs://youtube8m-ml/2/frame/train/train51.tfrecord"
        string_val: "gs://youtube8m-ml/2/frame/train/train52.tfrecord"
        string_val: "gs://youtube8m-ml/2/frame/train/train53.tfrecord"
        string_val: "gs://youtube8m-ml/2/frame/train/train54.tfrecord"
        string_val: "gs://youtube8m-ml/2/frame/train/train55.tfrecord"
        string_val: "gs://youtube8m-ml/2/frame/train/train56.tfrecord"
        string_val: "gs://youtube8m-ml/2/frame/train/train57.tfrecord"
        string_val: "gs://youtube8m-ml/2/frame/train/train58.tfrecord"
        string_val: "gs://youtube8m-ml/2/frame/train/train59.tfrecord"
        string_val: "gs://youtube8m-ml/2/frame/train/train5A.tfrecord"
        string_val: "gs://youtube8m-ml/2/frame/train/train5B.tfrecord"
        string_val: "gs://youtube8m-ml/2/frame/train/train5C.tfrecord"
        string_val: "gs://youtube8m-ml/2/frame/train/train5D.tfrecord"
        string_val: "gs://youtube8m-ml/2/frame/train/train5E.tfrecord"
        string_val: "gs://youtube8m-ml/2/frame/train/train5F.tfrecord"
        string_val: "gs://youtube8m-ml/2/frame/train/train5G.tfrecord"
        string_val: "gs://youtube8m-ml/2/frame/train/train5H.tfrecord"
        string_val: "gs://youtube8m-ml/2/frame/train/train5I.tfrecord"
        string_val: "gs://youtube8m-ml/2/frame/train/train5J.tfrecord"
        string_val: "gs://youtube8m-ml/2/frame/train/train5K.tfrecord"
        string_val: "gs://youtube8m-ml/2/frame/train/train5L.tfrecord"
        string_val: "gs://youtube8m-ml/2/frame/train/train5M.tfrecord"
        string_val: "gs://youtube8m-ml/2/frame/train/train5N.tfrecord"
        string_val: "gs://youtube8m-ml/2/frame/train/train5O.tfrecord"
        string_val: "gs://youtube8m-ml/2/frame/train/train5P.tfrecord"
        string_val: "gs://youtube8m-ml/2/frame/train/train5Q.tfrecord"
        string_val: "gs://youtube8m-ml/2/frame/train/train5R.tfrecord"
        string_val: "gs://youtube8m-ml/2/frame/train/train5S.tfrecord"
        string_val: "gs://youtube8m-ml/2/frame/train/train5T.tfrecord"
        string_val: "gs://youtube8m-ml/2/frame/train/train5U.tfrecord"
        string_val: "gs://youtube8m-ml/2/frame/train/train5V.tfrecord"
        string_val: "gs://youtube8m-ml/2/frame/train/train5W.tfrecord"
        string_val: "gs://youtube8m-ml/2/frame/train/train5X.tfrecord"
        string_val: "gs://youtube8m-ml/2/frame/train/train5Y.tfrecord"
        string_val: "gs://youtube8m-ml/2/frame/train/train5Z.tfrecord"
        string_val: "gs://youtube8m-ml/2/frame/train/train5a.tfrecord"
        string_val: "gs://youtube8m-ml/2/frame/train/train5b.tfrecord"
        string_val: "gs://youtube8m-ml/2/frame/train/train5c.tfrecord"
        string_val: "gs://youtube8m-ml/2/frame/train/train5d.tfrecord"
        string_val: "gs://youtube8m-ml/2/frame/train/train5e.tfrecord"
        string_val: "gs://youtube8m-ml/2/frame/train/train5f.tfrecord"
        string_val: "gs://youtube8m-ml/2/frame/train/train5g.tfrecord"
        string_val: "gs://youtube8m-ml/2/frame/train/train5h.tfrecord"
        string_val: "gs://youtube8m-ml/2/frame/train/train5i.tfrecord"
        string_val: "gs://youtube8m-ml/2/frame/train/train5j.tfrecord"
        string_val: "gs://youtube8m-ml/2/frame/train/train5k.tfrecord"
        string_val: "gs://youtube8m-ml/2/frame/train/train5l.tfrecord"
        string_val: "gs://youtube8m-ml/2/frame/train/train5m.tfrecord"
        string_val: "gs://youtube8m-ml/2/frame/train/train5n.tfrecord"
        string_val: "gs://youtube8m-ml/2/frame/train/train5o.tfrecord"
        string_val: "gs://youtube8m-ml/2/frame/train/train5p.tfrecord"
        string_val: "gs://youtube8m-ml/2/frame/train/train5q.tfrecord"
        string_val: "gs://youtube8m-ml/2/frame/train/train5r.tfrecord"
        string_val: "gs://youtube8m-ml/2/frame/train/train5s.tfrecord"
        string_val: "gs://youtube8m-ml/2/frame/train/train5t.tfrecord"
        string_val: "gs://youtube8m-ml/2/frame/train/train5u.tfrecord"
        string_val: "gs://youtube8m-ml/2/frame/train/train5v.tfrecord"
        string_val: "gs://youtube8m-ml/2/frame/train/train5w.tfrecord"
        string_val: "gs://youtube8m-ml/2/frame/train/train5x.tfrecord"
        string_val: "gs://youtube8m-ml/2/frame/train/train5y.tfrecord"
        string_val: "gs://youtube8m-ml/2/frame/train/train5z.tfrecord"
        string_val: "gs://youtube8m-ml/2/frame/train/train60.tfrecord"
        string_val: "gs://youtube8m-ml/2/frame/train/train61.tfrecord"
        string_val: "gs://youtube8m-ml/2/frame/train/train62.tfrecord"
        string_val: "gs://youtube8m-ml/2/frame/train/train63.tfrecord"
        string_val: "gs://youtube8m-ml/2/frame/train/train64.tfrecord"
        string_val: "gs://youtube8m-ml/2/frame/train/train65.tfrecord"
        string_val: "gs://youtube8m-ml/2/frame/train/train66.tfrecord"
        string_val: "gs://youtube8m-ml/2/frame/train/train67.tfrecord"
        string_val: "gs://youtube8m-ml/2/frame/train/train68.tfrecord"
        string_val: "gs://youtube8m-ml/2/frame/train/train69.tfrecord"
        string_val: "gs://youtube8m-ml/2/frame/train/train6A.tfrecord"
        string_val: "gs://youtube8m-ml/2/frame/train/train6B.tfrecord"
        string_val: "gs://youtube8m-ml/2/frame/train/train6C.tfrecord"
        string_val: "gs://youtube8m-ml/2/frame/train/train6D.tfrecord"
        string_val: "gs://youtube8m-ml/2/frame/train/train6E.tfrecord"
        string_val: "gs://youtube8m-ml/2/frame/train/train6F.tfrecord"
        string_val: "gs://youtube8m-ml/2/frame/train/train6G.tfrecord"
        string_val: "gs://youtube8m-ml/2/frame/train/train6H.tfrecord"
        string_val: "gs://youtube8m-ml/2/frame/train/train6I.tfrecord"
        string_val: "gs://youtube8m-ml/2/frame/train/train6J.tfrecord"
        string_val: "gs://youtube8m-ml/2/frame/train/train6K.tfrecord"
        string_val: "gs://youtube8m-ml/2/frame/train/train6L.tfrecord"
        string_val: "gs://youtube8m-ml/2/frame/train/train6M.tfrecord"
        string_val: "gs://youtube8m-ml/2/frame/train/train6N.tfrecord"
        string_val: "gs://youtube8m-ml/2/frame/train/train6O.tfrecord"
        string_val: "gs://youtube8m-ml/2/frame/train/train6P.tfrecord"
        string_val: "gs://youtube8m-ml/2/frame/train/train6Q.tfrecord"
        string_val: "gs://youtube8m-ml/2/frame/train/train6R.tfrecord"
        string_val: "gs://youtube8m-ml/2/frame/train/train6S.tfrecord"
        string_val: "gs://youtube8m-ml/2/frame/train/train6T.tfrecord"
        string_val: "gs://youtube8m-ml/2/frame/train/train6U.tfrecord"
        string_val: "gs://youtube8m-ml/2/frame/train/train6V.tfrecord"
        string_val: "gs://youtube8m-ml/2/frame/train/train6W.tfrecord"
        string_val: "gs://youtube8m-ml/2/frame/train/train6X.tfrecord"
        string_val: "gs://youtube8m-ml/2/frame/train/train6Y.tfrecord"
        string_val: "gs://youtube8m-ml/2/frame/train/train6Z.tfrecord"
        string_val: "gs://youtube8m-ml/2/frame/train/train6a.tfrecord"
        string_val: "gs://youtube8m-ml/2/frame/train/train6b.tfrecord"
        string_val: "gs://youtube8m-ml/2/frame/train/train6c.tfrecord"
        string_val: "gs://youtube8m-ml/2/frame/train/train6d.tfrecord"
        string_val: "gs://youtube8m-ml/2/frame/train/train6e.tfrecord"
        string_val: "gs://youtube8m-ml/2/frame/train/train6f.tfrecord"
        string_val: "gs://youtube8m-ml/2/frame/train/train6g.tfrecord"
        string_val: "gs://youtube8m-ml/2/frame/train/train6h.tfrecord"
        string_val: "gs://youtube8m-ml/2/frame/train/train6i.tfrecord"
        string_val: "gs://youtube8m-ml/2/frame/train/train6j.tfrecord"
        string_val: "gs://youtube8m-ml/2/frame/train/train6k.tfrecord"
        string_val: "gs://youtube8m-ml/2/frame/train/train6l.tfrecord"
        string_val: "gs://youtube8m-ml/2/frame/train/train6m.tfrecord"
        string_val: "gs://youtube8m-ml/2/frame/train/train6n.tfrecord"
        string_val: "gs://youtube8m-ml/2/frame/train/train6o.tfrecord"
        string_val: "gs://youtube8m-ml/2/frame/train/train6p.tfrecord"
        string_val: "gs://youtube8m-ml/2/frame/train/train6q.tfrecord"
        string_val: "gs://youtube8m-ml/2/frame/train/train6r.tfrecord"
        string_val: "gs://youtube8m-ml/2/frame/train/train6s.tfrecord"
        string_val: "gs://youtube8m-ml/2/frame/train/train6t.tfrecord"
        string_val: "gs://youtube8m-ml/2/frame/train/train6u.tfrecord"
        string_val: "gs://youtube8m-ml/2/frame/train/train6v.tfrecord"
        string_val: "gs://youtube8m-ml/2/frame/train/train6w.tfrecord"
        string_val: "gs://youtube8m-ml/2/frame/train/train6x.tfrecord"
        string_val: "gs://youtube8m-ml/2/frame/train/train6y.tfrecord"
        string_val: "gs://youtube8m-ml/2/frame/train/train6z.tfrecord"
        string_val: "gs://youtube8m-ml/2/frame/train/train70.tfrecord"
        string_val: "gs://youtube8m-ml/2/frame/train/train71.tfrecord"
        string_val: "gs://youtube8m-ml/2/frame/train/train72.tfrecord"
        string_val: "gs://youtube8m-ml/2/frame/train/train73.tfrecord"
        string_val: "gs://youtube8m-ml/2/frame/train/train74.tfrecord"
        string_val: "gs://youtube8m-ml/2/frame/train/train75.tfrecord"
        string_val: "gs://youtube8m-ml/2/frame/train/train76.tfrecord"
        string_val: "gs://youtube8m-ml/2/frame/train/train77.tfrecord"
        string_val: "gs://youtube8m-ml/2/frame/train/train78.tfrecord"
        string_val: "gs://youtube8m-ml/2/frame/train/train79.tfrecord"
        string_val: "gs://youtube8m-ml/2/frame/train/train7A.tfrecord"
        string_val: "gs://youtube8m-ml/2/frame/train/train7B.tfrecord"
        string_val: "gs://youtube8m-ml/2/frame/train/train7C.tfrecord"
        string_val: "gs://youtube8m-ml/2/frame/train/train7D.tfrecord"
        string_val: "gs://youtube8m-ml/2/frame/train/train7E.tfrecord"
        string_val: "gs://youtube8m-ml/2/frame/train/train7F.tfrecord"
        string_val: "gs://youtube8m-ml/2/frame/train/train7G.tfrecord"
        string_val: "gs://youtube8m-ml/2/frame/train/train7H.tfrecord"
        string_val: "gs://youtube8m-ml/2/frame/train/train7I.tfrecord"
        string_val: "gs://youtube8m-ml/2/frame/train/train7J.tfrecord"
        string_val: "gs://youtube8m-ml/2/frame/train/train7K.tfrecord"
        string_val: "gs://youtube8m-ml/2/frame/train/train7L.tfrecord"
        string_val: "gs://youtube8m-ml/2/frame/train/train7M.tfrecord"
        string_val: "gs://youtube8m-ml/2/frame/train/train7N.tfrecord"
        string_val: "gs://youtube8m-ml/2/frame/train/train7O.tfrecord"
        string_val: "gs://youtube8m-ml/2/frame/train/train7P.tfrecord"
        string_val: "gs://youtube8m-ml/2/frame/train/train7Q.tfrecord"
        string_val: "gs://youtube8m-ml/2/frame/train/train7R.tfrecord"
        string_val: "gs://youtube8m-ml/2/frame/train/train7S.tfrecord"
        string_val: "gs://youtube8m-ml/2/frame/train/train7T.tfrecord"
        string_val: "gs://youtube8m-ml/2/frame/train/train7U.tfrecord"
        string_val: "gs://youtube8m-ml/2/frame/train/train7V.tfrecord"
        string_val: "gs://youtube8m-ml/2/frame/train/train7W.tfrecord"
        string_val: "gs://youtube8m-ml/2/frame/train/train7X.tfrecord"
        string_val: "gs://youtube8m-ml/2/frame/train/train7Y.tfrecord"
        string_val: "gs://youtube8m-ml/2/frame/train/train7Z.tfrecord"
        string_val: "gs://youtube8m-ml/2/frame/train/train7a.tfrecord"
        string_val: "gs://youtube8m-ml/2/frame/train/train7b.tfrecord"
        string_val: "gs://youtube8m-ml/2/frame/train/train7c.tfrecord"
        string_val: "gs://youtube8m-ml/2/frame/train/train7d.tfrecord"
        string_val: "gs://youtube8m-ml/2/frame/train/train7e.tfrecord"
        string_val: "gs://youtube8m-ml/2/frame/train/train7f.tfrecord"
        string_val: "gs://youtube8m-ml/2/frame/train/train7g.tfrecord"
        string_val: "gs://youtube8m-ml/2/frame/train/train7h.tfrecord"
        string_val: "gs://youtube8m-ml/2/frame/train/train7i.tfrecord"
        string_val: "gs://youtube8m-ml/2/frame/train/train7j.tfrecord"
        string_val: "gs://youtube8m-ml/2/frame/train/train7k.tfrecord"
        string_val: "gs://youtube8m-ml/2/frame/train/train7l.tfrecord"
        string_val: "gs://youtube8m-ml/2/frame/train/train7m.tfrecord"
        string_val: "gs://youtube8m-ml/2/frame/train/train7n.tfrecord"
        string_val: "gs://youtube8m-ml/2/frame/train/train7o.tfrecord"
        string_val: "gs://youtube8m-ml/2/frame/train/train7p.tfrecord"
        string_val: "gs://youtube8m-ml/2/frame/train/train7q.tfrecord"
        string_val: "gs://youtube8m-ml/2/frame/train/train7r.tfrecord"
        string_val: "gs://youtube8m-ml/2/frame/train/train7s.tfrecord"
        string_val: "gs://youtube8m-ml/2/frame/train/train7t.tfrecord"
        string_val: "gs://youtube8m-ml/2/frame/train/train7u.tfrecord"
        string_val: "gs://youtube8m-ml/2/frame/train/train7v.tfrecord"
        string_val: "gs://youtube8m-ml/2/frame/train/train7w.tfrecord"
        string_val: "gs://youtube8m-ml/2/frame/train/train7x.tfrecord"
        string_val: "gs://youtube8m-ml/2/frame/train/train7y.tfrecord"
        string_val: "gs://youtube8m-ml/2/frame/train/train7z.tfrecord"
        string_val: "gs://youtube8m-ml/2/frame/train/train80.tfrecord"
        string_val: "gs://youtube8m-ml/2/frame/train/train81.tfrecord"
        string_val: "gs://youtube8m-ml/2/frame/train/train82.tfrecord"
        string_val: "gs://youtube8m-ml/2/frame/train/train83.tfrecord"
        string_val: "gs://youtube8m-ml/2/frame/train/train84.tfrecord"
        string_val: "gs://youtube8m-ml/2/frame/train/train85.tfrecord"
        string_val: "gs://youtube8m-ml/2/frame/train/train86.tfrecord"
        string_val: "gs://youtube8m-ml/2/frame/train/train87.tfrecord"
        string_val: "gs://youtube8m-ml/2/frame/train/train88.tfrecord"
        string_val: "gs://youtube8m-ml/2/frame/train/train89.tfrecord"
        string_val: "gs://youtube8m-ml/2/frame/train/train8A.tfrecord"
        string_val: "gs://youtube8m-ml/2/frame/train/train8B.tfrecord"
        string_val: "gs://youtube8m-ml/2/frame/train/train8C.tfrecord"
        string_val: "gs://youtube8m-ml/2/frame/train/train8D.tfrecord"
        string_val: "gs://youtube8m-ml/2/frame/train/train8E.tfrecord"
        string_val: "gs://youtube8m-ml/2/frame/train/train8F.tfrecord"
        string_val: "gs://youtube8m-ml/2/frame/train/train8G.tfrecord"
        string_val: "gs://youtube8m-ml/2/frame/train/train8H.tfrecord"
        string_val: "gs://youtube8m-ml/2/frame/train/train8I.tfrecord"
        string_val: "gs://youtube8m-ml/2/frame/train/train8J.tfrecord"
        string_val: "gs://youtube8m-ml/2/frame/train/train8K.tfrecord"
        string_val: "gs://youtube8m-ml/2/frame/train/train8L.tfrecord"
        string_val: "gs://youtube8m-ml/2/frame/train/train8M.tfrecord"
        string_val: "gs://youtube8m-ml/2/frame/train/train8N.tfrecord"
        string_val: "gs://youtube8m-ml/2/frame/train/train8O.tfrecord"
        string_val: "gs://youtube8m-ml/2/frame/train/train8P.tfrecord"
        string_val: "gs://youtube8m-ml/2/frame/train/train8Q.tfrecord"
        string_val: "gs://youtube8m-ml/2/frame/train/train8R.tfrecord"
        string_val: "gs://youtube8m-ml/2/frame/train/train8S.tfrecord"
        string_val: "gs://youtube8m-ml/2/frame/train/train8T.tfrecord"
        string_val: "gs://youtube8m-ml/2/frame/train/train8U.tfrecord"
        string_val: "gs://youtube8m-ml/2/frame/train/train8V.tfrecord"
        string_val: "gs://youtube8m-ml/2/frame/train/train8W.tfrecord"
        string_val: "gs://youtube8m-ml/2/frame/train/train8X.tfrecord"
        string_val: "gs://youtube8m-ml/2/frame/train/train8Y.tfrecord"
        string_val: "gs://youtube8m-ml/2/frame/train/train8Z.tfrecord"
        string_val: "gs://youtube8m-ml/2/frame/train/train8a.tfrecord"
        string_val: "gs://youtube8m-ml/2/frame/train/train8b.tfrecord"
        string_val: "gs://youtube8m-ml/2/frame/train/train8c.tfrecord"
        string_val: "gs://youtube8m-ml/2/frame/train/train8d.tfrecord"
        string_val: "gs://youtube8m-ml/2/frame/train/train8e.tfrecord"
        string_val: "gs://youtube8m-ml/2/frame/train/train8f.tfrecord"
        string_val: "gs://youtube8m-ml/2/frame/train/train8g.tfrecord"
        string_val: "gs://youtube8m-ml/2/frame/train/train8h.tfrecord"
        string_val: "gs://youtube8m-ml/2/frame/train/train8i.tfrecord"
        string_val: "gs://youtube8m-ml/2/frame/train/train8j.tfrecord"
        string_val: "gs://youtube8m-ml/2/frame/train/train8k.tfrecord"
        string_val: "gs://youtube8m-ml/2/frame/train/train8l.tfrecord"
        string_val: "gs://youtube8m-ml/2/frame/train/train8m.tfrecord"
        string_val: "gs://youtube8m-ml/2/frame/train/train8n.tfrecord"
        string_val: "gs://youtube8m-ml/2/frame/train/train8o.tfrecord"
        string_val: "gs://youtube8m-ml/2/frame/train/train8p.tfrecord"
        string_val: "gs://youtube8m-ml/2/frame/train/train8q.tfrecord"
        string_val: "gs://youtube8m-ml/2/frame/train/train8r.tfrecord"
        string_val: "gs://youtube8m-ml/2/frame/train/train8s.tfrecord"
        string_val: "gs://youtube8m-ml/2/frame/train/train8t.tfrecord"
        string_val: "gs://youtube8m-ml/2/frame/train/train8u.tfrecord"
        string_val: "gs://youtube8m-ml/2/frame/train/train8v.tfrecord"
        string_val: "gs://youtube8m-ml/2/frame/train/train8w.tfrecord"
        string_val: "gs://youtube8m-ml/2/frame/train/train8x.tfrecord"
        string_val: "gs://youtube8m-ml/2/frame/train/train8y.tfrecord"
        string_val: "gs://youtube8m-ml/2/frame/train/train8z.tfrecord"
        string_val: "gs://youtube8m-ml/2/frame/train/train90.tfrecord"
        string_val: "gs://youtube8m-ml/2/frame/train/train91.tfrecord"
        string_val: "gs://youtube8m-ml/2/frame/train/train92.tfrecord"
        string_val: "gs://youtube8m-ml/2/frame/train/train93.tfrecord"
        string_val: "gs://youtube8m-ml/2/frame/train/train94.tfrecord"
        string_val: "gs://youtube8m-ml/2/frame/train/train95.tfrecord"
        string_val: "gs://youtube8m-ml/2/frame/train/train96.tfrecord"
        string_val: "gs://youtube8m-ml/2/frame/train/train97.tfrecord"
        string_val: "gs://youtube8m-ml/2/frame/train/train98.tfrecord"
        string_val: "gs://youtube8m-ml/2/frame/train/train99.tfrecord"
        string_val: "gs://youtube8m-ml/2/frame/train/train9A.tfrecord"
        string_val: "gs://youtube8m-ml/2/frame/train/train9B.tfrecord"
        string_val: "gs://youtube8m-ml/2/frame/train/train9C.tfrecord"
        string_val: "gs://youtube8m-ml/2/frame/train/train9D.tfrecord"
        string_val: "gs://youtube8m-ml/2/frame/train/train9E.tfrecord"
        string_val: "gs://youtube8m-ml/2/frame/train/train9F.tfrecord"
        string_val: "gs://youtube8m-ml/2/frame/train/train9G.tfrecord"
        string_val: "gs://youtube8m-ml/2/frame/train/train9H.tfrecord"
        string_val: "gs://youtube8m-ml/2/frame/train/train9I.tfrecord"
        string_val: "gs://youtube8m-ml/2/frame/train/train9J.tfrecord"
        string_val: "gs://youtube8m-ml/2/frame/train/train9K.tfrecord"
        string_val: "gs://youtube8m-ml/2/frame/train/train9L.tfrecord"
        string_val: "gs://youtube8m-ml/2/frame/train/train9M.tfrecord"
        string_val: "gs://youtube8m-ml/2/frame/train/train9N.tfrecord"
        string_val: "gs://youtube8m-ml/2/frame/train/train9O.tfrecord"
        string_val: "gs://youtube8m-ml/2/frame/train/train9P.tfrecord"
        string_val: "gs://youtube8m-ml/2/frame/train/train9Q.tfrecord"
        string_val: "gs://youtube8m-ml/2/frame/train/train9R.tfrecord"
        string_val: "gs://youtube8m-ml/2/frame/train/train9S.tfrecord"
        string_val: "gs://youtube8m-ml/2/frame/train/train9T.tfrecord"
        string_val: "gs://youtube8m-ml/2/frame/train/train9U.tfrecord"
        string_val: "gs://youtube8m-ml/2/frame/train/train9V.tfrecord"
        string_val: "gs://youtube8m-ml/2/frame/train/train9W.tfrecord"
        string_val: "gs://youtube8m-ml/2/frame/train/train9X.tfrecord"
        string_val: "gs://youtube8m-ml/2/frame/train/train9Y.tfrecord"
        string_val: "gs://youtube8m-ml/2/frame/train/train9Z.tfrecord"
        string_val: "gs://youtube8m-ml/2/frame/train/train9a.tfrecord"
        string_val: "gs://youtube8m-ml/2/frame/train/train9b.tfrecord"
        string_val: "gs://youtube8m-ml/2/frame/train/train9c.tfrecord"
        string_val: "gs://youtube8m-ml/2/frame/train/train9d.tfrecord"
        string_val: "gs://youtube8m-ml/2/frame/train/train9e.tfrecord"
        string_val: "gs://youtube8m-ml/2/frame/train/train9f.tfrecord"
        string_val: "gs://youtube8m-ml/2/frame/train/train9g.tfrecord"
        string_val: "gs://youtube8m-ml/2/frame/train/train9h.tfrecord"
        string_val: "gs://youtube8m-ml/2/frame/train/train9i.tfrecord"
        string_val: "gs://youtube8m-ml/2/frame/train/train9j.tfrecord"
        string_val: "gs://youtube8m-ml/2/frame/train/train9k.tfrecord"
        string_val: "gs://youtube8m-ml/2/frame/train/train9l.tfrecord"
        string_val: "gs://youtube8m-ml/2/frame/train/train9m.tfrecord"
        string_val: "gs://youtube8m-ml/2/frame/train/train9n.tfrecord"
        string_val: "gs://youtube8m-ml/2/frame/train/train9o.tfrecord"
        string_val: "gs://youtube8m-ml/2/frame/train/train9p.tfrecord"
        string_val: "gs://youtube8m-ml/2/frame/train/train9q.tfrecord"
        string_val: "gs://youtube8m-ml/2/frame/train/train9r.tfrecord"
        string_val: "gs://youtube8m-ml/2/frame/train/train9s.tfrecord"
        string_val: "gs://youtube8m-ml/2/frame/train/train9t.tfrecord"
        string_val: "gs://youtube8m-ml/2/frame/train/train9u.tfrecord"
        string_val: "gs://youtube8m-ml/2/frame/train/train9v.tfrecord"
        string_val: "gs://youtube8m-ml/2/frame/train/train9w.tfrecord"
        string_val: "gs://youtube8m-ml/2/frame/train/train9x.tfrecord"
        string_val: "gs://youtube8m-ml/2/frame/train/train9y.tfrecord"
        string_val: "gs://youtube8m-ml/2/frame/train/train9z.tfrecord"
        string_val: "gs://youtube8m-ml/2/frame/train/trainA0.tfrecord"
        string_val: "gs://youtube8m-ml/2/frame/train/trainA1.tfrecord"
        string_val: "gs://youtube8m-ml/2/frame/train/trainA2.tfrecord"
        string_val: "gs://youtube8m-ml/2/frame/train/trainA3.tfrecord"
        string_val: "gs://youtube8m-ml/2/frame/train/trainA4.tfrecord"
        string_val: "gs://youtube8m-ml/2/frame/train/trainA5.tfrecord"
        string_val: "gs://youtube8m-ml/2/frame/train/trainA6.tfrecord"
        string_val: "gs://youtube8m-ml/2/frame/train/trainA7.tfrecord"
        string_val: "gs://youtube8m-ml/2/frame/train/trainA8.tfrecord"
        string_val: "gs://youtube8m-ml/2/frame/train/trainA9.tfrecord"
        string_val: "gs://youtube8m-ml/2/frame/train/trainAA.tfrecord"
        string_val: "gs://youtube8m-ml/2/frame/train/trainAB.tfrecord"
        string_val: "gs://youtube8m-ml/2/frame/train/trainAC.tfrecord"
        string_val: "gs://youtube8m-ml/2/frame/train/trainAD.tfrecord"
        string_val: "gs://youtube8m-ml/2/frame/train/trainAE.tfrecord"
        string_val: "gs://youtube8m-ml/2/frame/train/trainAF.tfrecord"
        string_val: "gs://youtube8m-ml/2/frame/train/trainAG.tfrecord"
        string_val: "gs://youtube8m-ml/2/frame/train/trainAH.tfrecord"
        string_val: "gs://youtube8m-ml/2/frame/train/trainAI.tfrecord"
        string_val: "gs://youtube8m-ml/2/frame/train/trainAJ.tfrecord"
        string_val: "gs://youtube8m-ml/2/frame/train/trainAK.tfrecord"
        string_val: "gs://youtube8m-ml/2/frame/train/trainAL.tfrecord"
        string_val: "gs://youtube8m-ml/2/frame/train/trainAM.tfrecord"
        string_val: "gs://youtube8m-ml/2/frame/train/trainAN.tfrecord"
        string_val: "gs://youtube8m-ml/2/frame/train/trainAO.tfrecord"
        string_val: "gs://youtube8m-ml/2/frame/train/trainAP.tfrecord"
        string_val: "gs://youtube8m-ml/2/frame/train/trainAQ.tfrecord"
        string_val: "gs://youtube8m-ml/2/frame/train/trainAR.tfrecord"
        string_val: "gs://youtube8m-ml/2/frame/train/trainAS.tfrecord"
        string_val: "gs://youtube8m-ml/2/frame/train/trainAT.tfrecord"
        string_val: "gs://youtube8m-ml/2/frame/train/trainAU.tfrecord"
        string_val: "gs://youtube8m-ml/2/frame/train/trainAV.tfrecord"
        string_val: "gs://youtube8m-ml/2/frame/train/trainAW.tfrecord"
        string_val: "gs://youtube8m-ml/2/frame/train/trainAX.tfrecord"
        string_val: "gs://youtube8m-ml/2/frame/train/trainAY.tfrecord"
        string_val: "gs://youtube8m-ml/2/frame/train/trainAZ.tfrecord"
        string_val: "gs://youtube8m-ml/2/frame/train/trainAa.tfrecord"
        string_val: "gs://youtube8m-ml/2/frame/train/trainAb.tfrecord"
        string_val: "gs://youtube8m-ml/2/frame/train/trainAc.tfrecord"
        string_val: "gs://youtube8m-ml/2/frame/train/trainAd.tfrecord"
        string_val: "gs://youtube8m-ml/2/frame/train/trainAe.tfrecord"
        string_val: "gs://youtube8m-ml/2/frame/train/trainAf.tfrecord"
        string_val: "gs://youtube8m-ml/2/frame/train/trainAg.tfrecord"
        string_val: "gs://youtube8m-ml/2/frame/train/trainAh.tfrecord"
        string_val: "gs://youtube8m-ml/2/frame/train/trainAi.tfrecord"
        string_val: "gs://youtube8m-ml/2/frame/train/trainAj.tfrecord"
        string_val: "gs://youtube8m-ml/2/frame/train/trainAk.tfrecord"
        string_val: "gs://youtube8m-ml/2/frame/train/trainAl.tfrecord"
        string_val: "gs://youtube8m-ml/2/frame/train/trainAm.tfrecord"
        string_val: "gs://youtube8m-ml/2/frame/train/trainAn.tfrecord"
        string_val: "gs://youtube8m-ml/2/frame/train/trainAo.tfrecord"
        string_val: "gs://youtube8m-ml/2/frame/train/trainAp.tfrecord"
        string_val: "gs://youtube8m-ml/2/frame/train/trainAq.tfrecord"
        string_val: "gs://youtube8m-ml/2/frame/train/trainAr.tfrecord"
        string_val: "gs://youtube8m-ml/2/frame/train/trainAs.tfrecord"
        string_val: "gs://youtube8m-ml/2/frame/train/trainAt.tfrecord"
        string_val: "gs://youtube8m-ml/2/frame/train/trainAu.tfrecord"
        string_val: "gs://youtube8m-ml/2/frame/train/trainAv.tfrecord"
        string_val: "gs://youtube8m-ml/2/frame/train/trainAw.tfrecord"
        string_val: "gs://youtube8m-ml/2/frame/train/trainAx.tfrecord"
        string_val: "gs://youtube8m-ml/2/frame/train/trainAy.tfrecord"
        string_val: "gs://youtube8m-ml/2/frame/train/trainAz.tfrecord"
        string_val: "gs://youtube8m-ml/2/frame/train/trainB0.tfrecord"
        string_val: "gs://youtube8m-ml/2/frame/train/trainB1.tfrecord"
        string_val: "gs://youtube8m-ml/2/frame/train/trainB2.tfrecord"
        string_val: "gs://youtube8m-ml/2/frame/train/trainB3.tfrecord"
        string_val: "gs://youtube8m-ml/2/frame/train/trainB4.tfrecord"
        string_val: "gs://youtube8m-ml/2/frame/train/trainB5.tfrecord"
        string_val: "gs://youtube8m-ml/2/frame/train/trainB6.tfrecord"
        string_val: "gs://youtube8m-ml/2/frame/train/trainB7.tfrecord"
        string_val: "gs://youtube8m-ml/2/frame/train/trainB8.tfrecord"
        string_val: "gs://youtube8m-ml/2/frame/train/trainB9.tfrecord"
        string_val: "gs://youtube8m-ml/2/frame/train/trainBA.tfrecord"
        string_val: "gs://youtube8m-ml/2/frame/train/trainBB.tfrecord"
        string_val: "gs://youtube8m-ml/2/frame/train/trainBC.tfrecord"
        string_val: "gs://youtube8m-ml/2/frame/train/trainBD.tfrecord"
        string_val: "gs://youtube8m-ml/2/frame/train/trainBE.tfrecord"
        string_val: "gs://youtube8m-ml/2/frame/train/trainBF.tfrecord"
        string_val: "gs://youtube8m-ml/2/frame/train/trainBG.tfrecord"
        string_val: "gs://youtube8m-ml/2/frame/train/trainBH.tfrecord"
        string_val: "gs://youtube8m-ml/2/frame/train/trainBI.tfrecord"
        string_val: "gs://youtube8m-ml/2/frame/train/trainBJ.tfrecord"
        string_val: "gs://youtube8m-ml/2/frame/train/trainBK.tfrecord"
        string_val: "gs://youtube8m-ml/2/frame/train/trainBL.tfrecord"
        string_val: "gs://youtube8m-ml/2/frame/train/trainBM.tfrecord"
        string_val: "gs://youtube8m-ml/2/frame/train/trainBN.tfrecord"
        string_val: "gs://youtube8m-ml/2/frame/train/trainBO.tfrecord"
        string_val: "gs://youtube8m-ml/2/frame/train/trainBP.tfrecord"
        string_val: "gs://youtube8m-ml/2/frame/train/trainBQ.tfrecord"
        string_val: "gs://youtube8m-ml/2/frame/train/trainBR.tfrecord"
        string_val: "gs://youtube8m-ml/2/frame/train/trainBS.tfrecord"
        string_val: "gs://youtube8m-ml/2/frame/train/trainBT.tfrecord"
        string_val: "gs://youtube8m-ml/2/frame/train/trainBU.tfrecord"
        string_val: "gs://youtube8m-ml/2/frame/train/trainBV.tfrecord"
        string_val: "gs://youtube8m-ml/2/frame/train/trainBW.tfrecord"
        string_val: "gs://youtube8m-ml/2/frame/train/trainBX.tfrecord"
        string_val: "gs://youtube8m-ml/2/frame/train/trainBY.tfrecord"
        string_val: "gs://youtube8m-ml/2/frame/train/trainBZ.tfrecord"
        string_val: "gs://youtube8m-ml/2/frame/train/trainBa.tfrecord"
        string_val: "gs://youtube8m-ml/2/frame/train/trainBb.tfrecord"
        string_val: "gs://youtube8m-ml/2/frame/train/trainBc.tfrecord"
        string_val: "gs://youtube8m-ml/2/frame/train/trainBd.tfrecord"
        string_val: "gs://youtube8m-ml/2/frame/train/trainBe.tfrecord"
        string_val: "gs://youtube8m-ml/2/frame/train/trainBf.tfrecord"
        string_val: "gs://youtube8m-ml/2/frame/train/trainBg.tfrecord"
        string_val: "gs://youtube8m-ml/2/frame/train/trainBh.tfrecord"
        string_val: "gs://youtube8m-ml/2/frame/train/trainBi.tfrecord"
        string_val: "gs://youtube8m-ml/2/frame/train/trainBj.tfrecord"
        string_val: "gs://youtube8m-ml/2/frame/train/trainBk.tfrecord"
        string_val: "gs://youtube8m-ml/2/frame/train/trainBl.tfrecord"
        string_val: "gs://youtube8m-ml/2/frame/train/trainBm.tfrecord"
        string_val: "gs://youtube8m-ml/2/frame/train/trainBn.tfrecord"
        string_val: "gs://youtube8m-ml/2/frame/train/trainBo.tfrecord"
        string_val: "gs://youtube8m-ml/2/frame/train/trainBp.tfrecord"
        string_val: "gs://youtube8m-ml/2/frame/train/trainBq.tfrecord"
        string_val: "gs://youtube8m-ml/2/frame/train/trainBr.tfrecord"
        string_val: "gs://youtube8m-ml/2/frame/train/trainBs.tfrecord"
        string_val: "gs://youtube8m-ml/2/frame/train/trainBt.tfrecord"
        string_val: "gs://youtube8m-ml/2/frame/train/trainBu.tfrecord"
        string_val: "gs://youtube8m-ml/2/frame/train/trainBv.tfrecord"
        string_val: "gs://youtube8m-ml/2/frame/train/trainBw.tfrecord"
        string_val: "gs://youtube8m-ml/2/frame/train/trainBx.tfrecord"
        string_val: "gs://youtube8m-ml/2/frame/train/trainBy.tfrecord"
        string_val: "gs://youtube8m-ml/2/frame/train/trainBz.tfrecord"
        string_val: "gs://youtube8m-ml/2/frame/train/trainC0.tfrecord"
        string_val: "gs://youtube8m-ml/2/frame/train/trainC1.tfrecord"
        string_val: "gs://youtube8m-ml/2/frame/train/trainC2.tfrecord"
        string_val: "gs://youtube8m-ml/2/frame/train/trainC3.tfrecord"
        string_val: "gs://youtube8m-ml/2/frame/train/trainC4.tfrecord"
        string_val: "gs://youtube8m-ml/2/frame/train/trainC5.tfrecord"
        string_val: "gs://youtube8m-ml/2/frame/train/trainC6.tfrecord"
        string_val: "gs://youtube8m-ml/2/frame/train/trainC7.tfrecord"
        string_val: "gs://youtube8m-ml/2/frame/train/trainC8.tfrecord"
        string_val: "gs://youtube8m-ml/2/frame/train/trainC9.tfrecord"
        string_val: "gs://youtube8m-ml/2/frame/train/trainCA.tfrecord"
        string_val: "gs://youtube8m-ml/2/frame/train/trainCB.tfrecord"
        string_val: "gs://youtube8m-ml/2/frame/train/trainCC.tfrecord"
        string_val: "gs://youtube8m-ml/2/frame/train/trainCD.tfrecord"
        string_val: "gs://youtube8m-ml/2/frame/train/trainCE.tfrecord"
        string_val: "gs://youtube8m-ml/2/frame/train/trainCF.tfrecord"
        string_val: "gs://youtube8m-ml/2/frame/train/trainCG.tfrecord"
        string_val: "gs://youtube8m-ml/2/frame/train/trainCH.tfrecord"
        string_val: "gs://youtube8m-ml/2/frame/train/trainCI.tfrecord"
        string_val: "gs://youtube8m-ml/2/frame/train/trainCJ.tfrecord"
        string_val: "gs://youtube8m-ml/2/frame/train/trainCK.tfrecord"
        string_val: "gs://youtube8m-ml/2/frame/train/trainCL.tfrecord"
        string_val: "gs://youtube8m-ml/2/frame/train/trainCM.tfrecord"
        string_val: "gs://youtube8m-ml/2/frame/train/trainCN.tfrecord"
        string_val: "gs://youtube8m-ml/2/frame/train/trainCO.tfrecord"
        string_val: "gs://youtube8m-ml/2/frame/train/trainCP.tfrecord"
        string_val: "gs://youtube8m-ml/2/frame/train/trainCQ.tfrecord"
        string_val: "gs://youtube8m-ml/2/frame/train/trainCR.tfrecord"
        string_val: "gs://youtube8m-ml/2/frame/train/trainCS.tfrecord"
        string_val: "gs://youtube8m-ml/2/frame/train/trainCT.tfrecord"
        string_val: "gs://youtube8m-ml/2/frame/train/trainCU.tfrecord"
        string_val: "gs://youtube8m-ml/2/frame/train/trainCV.tfrecord"
        string_val: "gs://youtube8m-ml/2/frame/train/trainCW.tfrecord"
        string_val: "gs://youtube8m-ml/2/frame/train/trainCX.tfrecord"
        string_val: "gs://youtube8m-ml/2/frame/train/trainCY.tfrecord"
        string_val: "gs://youtube8m-ml/2/frame/train/trainCZ.tfrecord"
        string_val: "gs://youtube8m-ml/2/frame/train/trainCa.tfrecord"
        string_val: "gs://youtube8m-ml/2/frame/train/trainCb.tfrecord"
        string_val: "gs://youtube8m-ml/2/frame/train/trainCc.tfrecord"
        string_val: "gs://youtube8m-ml/2/frame/train/trainCd.tfrecord"
        string_val: "gs://youtube8m-ml/2/frame/train/trainCe.tfrecord"
        string_val: "gs://youtube8m-ml/2/frame/train/trainCf.tfrecord"
        string_val: "gs://youtube8m-ml/2/frame/train/trainCg.tfrecord"
        string_val: "gs://youtube8m-ml/2/frame/train/trainCh.tfrecord"
        string_val: "gs://youtube8m-ml/2/frame/train/trainCi.tfrecord"
        string_val: "gs://youtube8m-ml/2/frame/train/trainCj.tfrecord"
        string_val: "gs://youtube8m-ml/2/frame/train/trainCk.tfrecord"
        string_val: "gs://youtube8m-ml/2/frame/train/trainCl.tfrecord"
        string_val: "gs://youtube8m-ml/2/frame/train/trainCm.tfrecord"
        string_val: "gs://youtube8m-ml/2/frame/train/trainCn.tfrecord"
        string_val: "gs://youtube8m-ml/2/frame/train/trainCo.tfrecord"
        string_val: "gs://youtube8m-ml/2/frame/train/trainCp.tfrecord"
        string_val: "gs://youtube8m-ml/2/frame/train/trainCq.tfrecord"
        string_val: "gs://youtube8m-ml/2/frame/train/trainCr.tfrecord"
        string_val: "gs://youtube8m-ml/2/frame/train/trainCs.tfrecord"
        string_val: "gs://youtube8m-ml/2/frame/train/trainCt.tfrecord"
        string_val: "gs://youtube8m-ml/2/frame/train/trainCu.tfrecord"
        string_val: "gs://youtube8m-ml/2/frame/train/trainCv.tfrecord"
        string_val: "gs://youtube8m-ml/2/frame/train/trainCw.tfrecord"
        string_val: "gs://youtube8m-ml/2/frame/train/trainCx.tfrecord"
        string_val: "gs://youtube8m-ml/2/frame/train/trainCy.tfrecord"
        string_val: "gs://youtube8m-ml/2/frame/train/trainCz.tfrecord"
        string_val: "gs://youtube8m-ml/2/frame/train/trainD0.tfrecord"
        string_val: "gs://youtube8m-ml/2/frame/train/trainD1.tfrecord"
        string_val: "gs://youtube8m-ml/2/frame/train/trainD2.tfrecord"
        string_val: "gs://youtube8m-ml/2/frame/train/trainD3.tfrecord"
        string_val: "gs://youtube8m-ml/2/frame/train/trainD4.tfrecord"
        string_val: "gs://youtube8m-ml/2/frame/train/trainD5.tfrecord"
        string_val: "gs://youtube8m-ml/2/frame/train/trainD6.tfrecord"
        string_val: "gs://youtube8m-ml/2/frame/train/trainD7.tfrecord"
        string_val: "gs://youtube8m-ml/2/frame/train/trainD8.tfrecord"
        string_val: "gs://youtube8m-ml/2/frame/train/trainD9.tfrecord"
        string_val: "gs://youtube8m-ml/2/frame/train/trainDA.tfrecord"
        string_val: "gs://youtube8m-ml/2/frame/train/trainDB.tfrecord"
        string_val: "gs://youtube8m-ml/2/frame/train/trainDC.tfrecord"
        string_val: "gs://youtube8m-ml/2/frame/train/trainDD.tfrecord"
        string_val: "gs://youtube8m-ml/2/frame/train/trainDE.tfrecord"
        string_val: "gs://youtube8m-ml/2/frame/train/trainDF.tfrecord"
        string_val: "gs://youtube8m-ml/2/frame/train/trainDG.tfrecord"
        string_val: "gs://youtube8m-ml/2/frame/train/trainDH.tfrecord"
        string_val: "gs://youtube8m-ml/2/frame/train/trainDI.tfrecord"
        string_val: "gs://youtube8m-ml/2/frame/train/trainDJ.tfrecord"
        string_val: "gs://youtube8m-ml/2/frame/train/trainDK.tfrecord"
        string_val: "gs://youtube8m-ml/2/frame/train/trainDL.tfrecord"
        string_val: "gs://youtube8m-ml/2/frame/train/trainDM.tfrecord"
        string_val: "gs://youtube8m-ml/2/frame/train/trainDN.tfrecord"
        string_val: "gs://youtube8m-ml/2/frame/train/trainDO.tfrecord"
        string_val: "gs://youtube8m-ml/2/frame/train/trainDP.tfrecord"
        string_val: "gs://youtube8m-ml/2/frame/train/trainDQ.tfrecord"
        string_val: "gs://youtube8m-ml/2/frame/train/trainDR.tfrecord"
        string_val: "gs://youtube8m-ml/2/frame/train/trainDS.tfrecord"
        string_val: "gs://youtube8m-ml/2/frame/train/trainDT.tfrecord"
        string_val: "gs://youtube8m-ml/2/frame/train/trainDU.tfrecord"
        string_val: "gs://youtube8m-ml/2/frame/train/trainDV.tfrecord"
        string_val: "gs://youtube8m-ml/2/frame/train/trainDW.tfrecord"
        string_val: "gs://youtube8m-ml/2/frame/train/trainDX.tfrecord"
        string_val: "gs://youtube8m-ml/2/frame/train/trainDY.tfrecord"
        string_val: "gs://youtube8m-ml/2/frame/train/trainDZ.tfrecord"
        string_val: "gs://youtube8m-ml/2/frame/train/trainDa.tfrecord"
        string_val: "gs://youtube8m-ml/2/frame/train/trainDb.tfrecord"
        string_val: "gs://youtube8m-ml/2/frame/train/trainDc.tfrecord"
        string_val: "gs://youtube8m-ml/2/frame/train/trainDd.tfrecord"
        string_val: "gs://youtube8m-ml/2/frame/train/trainDe.tfrecord"
        string_val: "gs://youtube8m-ml/2/frame/train/trainDf.tfrecord"
        string_val: "gs://youtube8m-ml/2/frame/train/trainDg.tfrecord"
        string_val: "gs://youtube8m-ml/2/frame/train/trainDh.tfrecord"
        string_val: "gs://youtube8m-ml/2/frame/train/trainDi.tfrecord"
        string_val: "gs://youtube8m-ml/2/frame/train/trainDj.tfrecord"
        string_val: "gs://youtube8m-ml/2/frame/train/trainDk.tfrecord"
        string_val: "gs://youtube8m-ml/2/frame/train/trainDl.tfrecord"
        string_val: "gs://youtube8m-ml/2/frame/train/trainDm.tfrecord"
        string_val: "gs://youtube8m-ml/2/frame/train/trainDn.tfrecord"
        string_val: "gs://youtube8m-ml/2/frame/train/trainDo.tfrecord"
        string_val: "gs://youtube8m-ml/2/frame/train/trainDp.tfrecord"
        string_val: "gs://youtube8m-ml/2/frame/train/trainDq.tfrecord"
        string_val: "gs://youtube8m-ml/2/frame/train/trainDr.tfrecord"
        string_val: "gs://youtube8m-ml/2/frame/train/trainDs.tfrecord"
        string_val: "gs://youtube8m-ml/2/frame/train/trainDt.tfrecord"
        string_val: "gs://youtube8m-ml/2/frame/train/trainDu.tfrecord"
        string_val: "gs://youtube8m-ml/2/frame/train/trainDv.tfrecord"
        string_val: "gs://youtube8m-ml/2/frame/train/trainDw.tfrecord"
        string_val: "gs://youtube8m-ml/2/frame/train/trainDx.tfrecord"
        string_val: "gs://youtube8m-ml/2/frame/train/trainDy.tfrecord"
        string_val: "gs://youtube8m-ml/2/frame/train/trainDz.tfrecord"
        string_val: "gs://youtube8m-ml/2/frame/train/trainE0.tfrecord"
        string_val: "gs://youtube8m-ml/2/frame/train/trainE1.tfrecord"
        string_val: "gs://youtube8m-ml/2/frame/train/trainE2.tfrecord"
        string_val: "gs://youtube8m-ml/2/frame/train/trainE3.tfrecord"
        string_val: "gs://youtube8m-ml/2/frame/train/trainE4.tfrecord"
        string_val: "gs://youtube8m-ml/2/frame/train/trainE5.tfrecord"
        string_val: "gs://youtube8m-ml/2/frame/train/trainE6.tfrecord"
        string_val: "gs://youtube8m-ml/2/frame/train/trainE7.tfrecord"
        string_val: "gs://youtube8m-ml/2/frame/train/trainE8.tfrecord"
        string_val: "gs://youtube8m-ml/2/frame/train/trainE9.tfrecord"
        string_val: "gs://youtube8m-ml/2/frame/train/trainEA.tfrecord"
        string_val: "gs://youtube8m-ml/2/frame/train/trainEB.tfrecord"
        string_val: "gs://youtube8m-ml/2/frame/train/trainEC.tfrecord"
        string_val: "gs://youtube8m-ml/2/frame/train/trainED.tfrecord"
        string_val: "gs://youtube8m-ml/2/frame/train/trainEE.tfrecord"
        string_val: "gs://youtube8m-ml/2/frame/train/trainEF.tfrecord"
        string_val: "gs://youtube8m-ml/2/frame/train/trainEG.tfrecord"
        string_val: "gs://youtube8m-ml/2/frame/train/trainEH.tfrecord"
        string_val: "gs://youtube8m-ml/2/frame/train/trainEI.tfrecord"
        string_val: "gs://youtube8m-ml/2/frame/train/trainEJ.tfrecord"
        string_val: "gs://youtube8m-ml/2/frame/train/trainEK.tfrecord"
        string_val: "gs://youtube8m-ml/2/frame/train/trainEL.tfrecord"
        string_val: "gs://youtube8m-ml/2/frame/train/trainEM.tfrecord"
        string_val: "gs://youtube8m-ml/2/frame/train/trainEN.tfrecord"
        string_val: "gs://youtube8m-ml/2/frame/train/trainEO.tfrecord"
        string_val: "gs://youtube8m-ml/2/frame/train/trainEP.tfrecord"
        string_val: "gs://youtube8m-ml/2/frame/train/trainEQ.tfrecord"
        string_val: "gs://youtube8m-ml/2/frame/train/trainER.tfrecord"
        string_val: "gs://youtube8m-ml/2/frame/train/trainES.tfrecord"
        string_val: "gs://youtube8m-ml/2/frame/train/trainET.tfrecord"
        string_val: "gs://youtube8m-ml/2/frame/train/trainEU.tfrecord"
        string_val: "gs://youtube8m-ml/2/frame/train/trainEV.tfrecord"
        string_val: "gs://youtube8m-ml/2/frame/train/trainEW.tfrecord"
        string_val: "gs://youtube8m-ml/2/frame/train/trainEX.tfrecord"
        string_val: "gs://youtube8m-ml/2/frame/train/trainEY.tfrecord"
        string_val: "gs://youtube8m-ml/2/frame/train/trainEZ.tfrecord"
        string_val: "gs://youtube8m-ml/2/frame/train/trainEa.tfrecord"
        string_val: "gs://youtube8m-ml/2/frame/train/trainEb.tfrecord"
        string_val: "gs://youtube8m-ml/2/frame/train/trainEc.tfrecord"
        string_val: "gs://youtube8m-ml/2/frame/train/trainEd.tfrecord"
        string_val: "gs://youtube8m-ml/2/frame/train/trainEe.tfrecord"
        string_val: "gs://youtube8m-ml/2/frame/train/trainEf.tfrecord"
        string_val: "gs://youtube8m-ml/2/frame/train/trainEg.tfrecord"
        string_val: "gs://youtube8m-ml/2/frame/train/trainEh.tfrecord"
        string_val: "gs://youtube8m-ml/2/frame/train/trainEi.tfrecord"
        string_val: "gs://youtube8m-ml/2/frame/train/trainEj.tfrecord"
        string_val: "gs://youtube8m-ml/2/frame/train/trainEk.tfrecord"
        string_val: "gs://youtube8m-ml/2/frame/train/trainEl.tfrecord"
        string_val: "gs://youtube8m-ml/2/frame/train/trainEm.tfrecord"
        string_val: "gs://youtube8m-ml/2/frame/train/trainEn.tfrecord"
        string_val: "gs://youtube8m-ml/2/frame/train/trainEo.tfrecord"
        string_val: "gs://youtube8m-ml/2/frame/train/trainEp.tfrecord"
        string_val: "gs://youtube8m-ml/2/frame/train/trainEq.tfrecord"
        string_val: "gs://youtube8m-ml/2/frame/train/trainEr.tfrecord"
        string_val: "gs://youtube8m-ml/2/frame/train/trainEs.tfrecord"
        string_val: "gs://youtube8m-ml/2/frame/train/trainEt.tfrecord"
        string_val: "gs://youtube8m-ml/2/frame/train/trainEu.tfrecord"
        string_val: "gs://youtube8m-ml/2/frame/train/trainEv.tfrecord"
        string_val: "gs://youtube8m-ml/2/frame/train/trainEw.tfrecord"
        string_val: "gs://youtube8m-ml/2/frame/train/trainEx.tfrecord"
        string_val: "gs://youtube8m-ml/2/frame/train/trainEy.tfrecord"
        string_val: "gs://youtube8m-ml/2/frame/train/trainEz.tfrecord"
        string_val: "gs://youtube8m-ml/2/frame/train/trainF0.tfrecord"
        string_val: "gs://youtube8m-ml/2/frame/train/trainF1.tfrecord"
        string_val: "gs://youtube8m-ml/2/frame/train/trainF2.tfrecord"
        string_val: "gs://youtube8m-ml/2/frame/train/trainF3.tfrecord"
        string_val: "gs://youtube8m-ml/2/frame/train/trainF4.tfrecord"
        string_val: "gs://youtube8m-ml/2/frame/train/trainF5.tfrecord"
        string_val: "gs://youtube8m-ml/2/frame/train/trainF6.tfrecord"
        string_val: "gs://youtube8m-ml/2/frame/train/trainF7.tfrecord"
        string_val: "gs://youtube8m-ml/2/frame/train/trainF8.tfrecord"
        string_val: "gs://youtube8m-ml/2/frame/train/trainF9.tfrecord"
        string_val: "gs://youtube8m-ml/2/frame/train/trainFA.tfrecord"
        string_val: "gs://youtube8m-ml/2/frame/train/trainFB.tfrecord"
        string_val: "gs://youtube8m-ml/2/frame/train/trainFC.tfrecord"
        string_val: "gs://youtube8m-ml/2/frame/train/trainFD.tfrecord"
        string_val: "gs://youtube8m-ml/2/frame/train/trainFE.tfrecord"
        string_val: "gs://youtube8m-ml/2/frame/train/trainFF.tfrecord"
        string_val: "gs://youtube8m-ml/2/frame/train/trainFG.tfrecord"
        string_val: "gs://youtube8m-ml/2/frame/train/trainFH.tfrecord"
        string_val: "gs://youtube8m-ml/2/frame/train/trainFI.tfrecord"
        string_val: "gs://youtube8m-ml/2/frame/train/trainFJ.tfrecord"
        string_val: "gs://youtube8m-ml/2/frame/train/trainFK.tfrecord"
        string_val: "gs://youtube8m-ml/2/frame/train/trainFL.tfrecord"
        string_val: "gs://youtube8m-ml/2/frame/train/trainFM.tfrecord"
        string_val: "gs://youtube8m-ml/2/frame/train/trainFN.tfrecord"
        string_val: "gs://youtube8m-ml/2/frame/train/trainFO.tfrecord"
        string_val: "gs://youtube8m-ml/2/frame/train/trainFP.tfrecord"
        string_val: "gs://youtube8m-ml/2/frame/train/trainFQ.tfrecord"
        string_val: "gs://youtube8m-ml/2/frame/train/trainFR.tfrecord"
        string_val: "gs://youtube8m-ml/2/frame/train/trainFS.tfrecord"
        string_val: "gs://youtube8m-ml/2/frame/train/trainFT.tfrecord"
        string_val: "gs://youtube8m-ml/2/frame/train/trainFU.tfrecord"
        string_val: "gs://youtube8m-ml/2/frame/train/trainFV.tfrecord"
        string_val: "gs://youtube8m-ml/2/frame/train/trainFW.tfrecord"
        string_val: "gs://youtube8m-ml/2/frame/train/trainFX.tfrecord"
        string_val: "gs://youtube8m-ml/2/frame/train/trainFY.tfrecord"
        string_val: "gs://youtube8m-ml/2/frame/train/trainFZ.tfrecord"
        string_val: "gs://youtube8m-ml/2/frame/train/trainFa.tfrecord"
        string_val: "gs://youtube8m-ml/2/frame/train/trainFb.tfrecord"
        string_val: "gs://youtube8m-ml/2/frame/train/trainFc.tfrecord"
        string_val: "gs://youtube8m-ml/2/frame/train/trainFd.tfrecord"
        string_val: "gs://youtube8m-ml/2/frame/train/trainFe.tfrecord"
        string_val: "gs://youtube8m-ml/2/frame/train/trainFf.tfrecord"
        string_val: "gs://youtube8m-ml/2/frame/train/trainFg.tfrecord"
        string_val: "gs://youtube8m-ml/2/frame/train/trainFh.tfrecord"
        string_val: "gs://youtube8m-ml/2/frame/train/trainFi.tfrecord"
        string_val: "gs://youtube8m-ml/2/frame/train/trainFj.tfrecord"
        string_val: "gs://youtube8m-ml/2/frame/train/trainFk.tfrecord"
        string_val: "gs://youtube8m-ml/2/frame/train/trainFl.tfrecord"
        string_val: "gs://youtube8m-ml/2/frame/train/trainFm.tfrecord"
        string_val: "gs://youtube8m-ml/2/frame/train/trainFn.tfrecord"
        string_val: "gs://youtube8m-ml/2/frame/train/trainFo.tfrecord"
        string_val: "gs://youtube8m-ml/2/frame/train/trainFp.tfrecord"
        string_val: "gs://youtube8m-ml/2/frame/train/trainFq.tfrecord"
        string_val: "gs://youtube8m-ml/2/frame/train/trainFr.tfrecord"
        string_val: "gs://youtube8m-ml/2/frame/train/trainFs.tfrecord"
        string_val: "gs://youtube8m-ml/2/frame/train/trainFt.tfrecord"
        string_val: "gs://youtube8m-ml/2/frame/train/trainFu.tfrecord"
        string_val: "gs://youtube8m-ml/2/frame/train/trainFv.tfrecord"
        string_val: "gs://youtube8m-ml/2/frame/train/trainFw.tfrecord"
        string_val: "gs://youtube8m-ml/2/frame/train/trainFx.tfrecord"
        string_val: "gs://youtube8m-ml/2/frame/train/trainFy.tfrecord"
        string_val: "gs://youtube8m-ml/2/frame/train/trainFz.tfrecord"
        string_val: "gs://youtube8m-ml/2/frame/train/trainG0.tfrecord"
        string_val: "gs://youtube8m-ml/2/frame/train/trainG1.tfrecord"
        string_val: "gs://youtube8m-ml/2/frame/train/trainG2.tfrecord"
        string_val: "gs://youtube8m-ml/2/frame/train/trainG3.tfrecord"
        string_val: "gs://youtube8m-ml/2/frame/train/trainG4.tfrecord"
        string_val: "gs://youtube8m-ml/2/frame/train/trainG5.tfrecord"
        string_val: "gs://youtube8m-ml/2/frame/train/trainG6.tfrecord"
        string_val: "gs://youtube8m-ml/2/frame/train/trainG7.tfrecord"
        string_val: "gs://youtube8m-ml/2/frame/train/trainG8.tfrecord"
        string_val: "gs://youtube8m-ml/2/frame/train/trainG9.tfrecord"
        string_val: "gs://youtube8m-ml/2/frame/train/trainGA.tfrecord"
        string_val: "gs://youtube8m-ml/2/frame/train/trainGB.tfrecord"
        string_val: "gs://youtube8m-ml/2/frame/train/trainGC.tfrecord"
        string_val: "gs://youtube8m-ml/2/frame/train/trainGD.tfrecord"
        string_val: "gs://youtube8m-ml/2/frame/train/trainGE.tfrecord"
        string_val: "gs://youtube8m-ml/2/frame/train/trainGF.tfrecord"
        string_val: "gs://youtube8m-ml/2/frame/train/trainGG.tfrecord"
        string_val: "gs://youtube8m-ml/2/frame/train/trainGH.tfrecord"
        string_val: "gs://youtube8m-ml/2/frame/train/trainGI.tfrecord"
        string_val: "gs://youtube8m-ml/2/frame/train/trainGJ.tfrecord"
        string_val: "gs://youtube8m-ml/2/frame/train/trainGK.tfrecord"
        string_val: "gs://youtube8m-ml/2/frame/train/trainGL.tfrecord"
        string_val: "gs://youtube8m-ml/2/frame/train/trainGM.tfrecord"
        string_val: "gs://youtube8m-ml/2/frame/train/trainGN.tfrecord"
        string_val: "gs://youtube8m-ml/2/frame/train/trainGO.tfrecord"
        string_val: "gs://youtube8m-ml/2/frame/train/trainGP.tfrecord"
        string_val: "gs://youtube8m-ml/2/frame/train/trainGQ.tfrecord"
        string_val: "gs://youtube8m-ml/2/frame/train/trainGR.tfrecord"
        string_val: "gs://youtube8m-ml/2/frame/train/trainGS.tfrecord"
        string_val: "gs://youtube8m-ml/2/frame/train/trainGT.tfrecord"
        string_val: "gs://youtube8m-ml/2/frame/train/trainGU.tfrecord"
        string_val: "gs://youtube8m-ml/2/frame/train/trainGV.tfrecord"
        string_val: "gs://youtube8m-ml/2/frame/train/trainGW.tfrecord"
        string_val: "gs://youtube8m-ml/2/frame/train/trainGX.tfrecord"
        string_val: "gs://youtube8m-ml/2/frame/train/trainGY.tfrecord"
        string_val: "gs://youtube8m-ml/2/frame/train/trainGZ.tfrecord"
        string_val: "gs://youtube8m-ml/2/frame/train/trainGa.tfrecord"
        string_val: "gs://youtube8m-ml/2/frame/train/trainGb.tfrecord"
        string_val: "gs://youtube8m-ml/2/frame/train/trainGc.tfrecord"
        string_val: "gs://youtube8m-ml/2/frame/train/trainGd.tfrecord"
        string_val: "gs://youtube8m-ml/2/frame/train/trainGe.tfrecord"
        string_val: "gs://youtube8m-ml/2/frame/train/trainGf.tfrecord"
        string_val: "gs://youtube8m-ml/2/frame/train/trainGg.tfrecord"
        string_val: "gs://youtube8m-ml/2/frame/train/trainGh.tfrecord"
        string_val: "gs://youtube8m-ml/2/frame/train/trainGi.tfrecord"
        string_val: "gs://youtube8m-ml/2/frame/train/trainGj.tfrecord"
        string_val: "gs://youtube8m-ml/2/frame/train/trainGk.tfrecord"
        string_val: "gs://youtube8m-ml/2/frame/train/trainGl.tfrecord"
        string_val: "gs://youtube8m-ml/2/frame/train/trainGm.tfrecord"
        string_val: "gs://youtube8m-ml/2/frame/train/trainGn.tfrecord"
        string_val: "gs://youtube8m-ml/2/frame/train/trainGo.tfrecord"
        string_val: "gs://youtube8m-ml/2/frame/train/trainGp.tfrecord"
        string_val: "gs://youtube8m-ml/2/frame/train/trainGq.tfrecord"
        string_val: "gs://youtube8m-ml/2/frame/train/trainGr.tfrecord"
        string_val: "gs://youtube8m-ml/2/frame/train/trainGs.tfrecord"
        string_val: "gs://youtube8m-ml/2/frame/train/trainGt.tfrecord"
        string_val: "gs://youtube8m-ml/2/frame/train/trainGu.tfrecord"
        string_val: "gs://youtube8m-ml/2/frame/train/trainGv.tfrecord"
        string_val: "gs://youtube8m-ml/2/frame/train/trainGw.tfrecord"
        string_val: "gs://youtube8m-ml/2/frame/train/trainGx.tfrecord"
        string_val: "gs://youtube8m-ml/2/frame/train/trainGy.tfrecord"
        string_val: "gs://youtube8m-ml/2/frame/train/trainGz.tfrecord"
        string_val: "gs://youtube8m-ml/2/frame/train/trainH0.tfrecord"
        string_val: "gs://youtube8m-ml/2/frame/train/trainH1.tfrecord"
        string_val: "gs://youtube8m-ml/2/frame/train/trainH2.tfrecord"
        string_val: "gs://youtube8m-ml/2/frame/train/trainH3.tfrecord"
        string_val: "gs://youtube8m-ml/2/frame/train/trainH4.tfrecord"
        string_val: "gs://youtube8m-ml/2/frame/train/trainH5.tfrecord"
        string_val: "gs://youtube8m-ml/2/frame/train/trainH6.tfrecord"
        string_val: "gs://youtube8m-ml/2/frame/train/trainH7.tfrecord"
        string_val: "gs://youtube8m-ml/2/frame/train/trainH8.tfrecord"
        string_val: "gs://youtube8m-ml/2/frame/train/trainH9.tfrecord"
        string_val: "gs://youtube8m-ml/2/frame/train/trainHA.tfrecord"
        string_val: "gs://youtube8m-ml/2/frame/train/trainHB.tfrecord"
        string_val: "gs://youtube8m-ml/2/frame/train/trainHC.tfrecord"
        string_val: "gs://youtube8m-ml/2/frame/train/trainHD.tfrecord"
        string_val: "gs://youtube8m-ml/2/frame/train/trainHE.tfrecord"
        string_val: "gs://youtube8m-ml/2/frame/train/trainHF.tfrecord"
        string_val: "gs://youtube8m-ml/2/frame/train/trainHG.tfrecord"
        string_val: "gs://youtube8m-ml/2/frame/train/trainHH.tfrecord"
        string_val: "gs://youtube8m-ml/2/frame/train/trainHI.tfrecord"
        string_val: "gs://youtube8m-ml/2/frame/train/trainHJ.tfrecord"
        string_val: "gs://youtube8m-ml/2/frame/train/trainHK.tfrecord"
        string_val: "gs://youtube8m-ml/2/frame/train/trainHL.tfrecord"
        string_val: "gs://youtube8m-ml/2/frame/train/trainHM.tfrecord"
        string_val: "gs://youtube8m-ml/2/frame/train/trainHN.tfrecord"
        string_val: "gs://youtube8m-ml/2/frame/train/trainHO.tfrecord"
        string_val: "gs://youtube8m-ml/2/frame/train/trainHP.tfrecord"
        string_val: "gs://youtube8m-ml/2/frame/train/trainHQ.tfrecord"
        string_val: "gs://youtube8m-ml/2/frame/train/trainHR.tfrecord"
        string_val: "gs://youtube8m-ml/2/frame/train/trainHS.tfrecord"
        string_val: "gs://youtube8m-ml/2/frame/train/trainHT.tfrecord"
        string_val: "gs://youtube8m-ml/2/frame/train/trainHU.tfrecord"
        string_val: "gs://youtube8m-ml/2/frame/train/trainHV.tfrecord"
        string_val: "gs://youtube8m-ml/2/frame/train/trainHW.tfrecord"
        string_val: "gs://youtube8m-ml/2/frame/train/trainHX.tfrecord"
        string_val: "gs://youtube8m-ml/2/frame/train/trainHY.tfrecord"
        string_val: "gs://youtube8m-ml/2/frame/train/trainHZ.tfrecord"
        string_val: "gs://youtube8m-ml/2/frame/train/trainHa.tfrecord"
        string_val: "gs://youtube8m-ml/2/frame/train/trainHb.tfrecord"
        string_val: "gs://youtube8m-ml/2/frame/train/trainHc.tfrecord"
        string_val: "gs://youtube8m-ml/2/frame/train/trainHd.tfrecord"
        string_val: "gs://youtube8m-ml/2/frame/train/trainHe.tfrecord"
        string_val: "gs://youtube8m-ml/2/frame/train/trainHf.tfrecord"
        string_val: "gs://youtube8m-ml/2/frame/train/trainHg.tfrecord"
        string_val: "gs://youtube8m-ml/2/frame/train/trainHh.tfrecord"
        string_val: "gs://youtube8m-ml/2/frame/train/trainHi.tfrecord"
        string_val: "gs://youtube8m-ml/2/frame/train/trainHj.tfrecord"
        string_val: "gs://youtube8m-ml/2/frame/train/trainHk.tfrecord"
        string_val: "gs://youtube8m-ml/2/frame/train/trainHl.tfrecord"
        string_val: "gs://youtube8m-ml/2/frame/train/trainHm.tfrecord"
        string_val: "gs://youtube8m-ml/2/frame/train/trainHn.tfrecord"
        string_val: "gs://youtube8m-ml/2/frame/train/trainHo.tfrecord"
        string_val: "gs://youtube8m-ml/2/frame/train/trainHp.tfrecord"
        string_val: "gs://youtube8m-ml/2/frame/train/trainHq.tfrecord"
        string_val: "gs://youtube8m-ml/2/frame/train/trainHr.tfrecord"
        string_val: "gs://youtube8m-ml/2/frame/train/trainHs.tfrecord"
        string_val: "gs://youtube8m-ml/2/frame/train/trainHt.tfrecord"
        string_val: "gs://youtube8m-ml/2/frame/train/trainHu.tfrecord"
        string_val: "gs://youtube8m-ml/2/frame/train/trainHv.tfrecord"
        string_val: "gs://youtube8m-ml/2/frame/train/trainHw.tfrecord"
        string_val: "gs://youtube8m-ml/2/frame/train/trainHx.tfrecord"
        string_val: "gs://youtube8m-ml/2/frame/train/trainHy.tfrecord"
        string_val: "gs://youtube8m-ml/2/frame/train/trainHz.tfrecord"
        string_val: "gs://youtube8m-ml/2/frame/train/trainI0.tfrecord"
        string_val: "gs://youtube8m-ml/2/frame/train/trainI1.tfrecord"
        string_val: "gs://youtube8m-ml/2/frame/train/trainI2.tfrecord"
        string_val: "gs://youtube8m-ml/2/frame/train/trainI3.tfrecord"
        string_val: "gs://youtube8m-ml/2/frame/train/trainI4.tfrecord"
        string_val: "gs://youtube8m-ml/2/frame/train/trainI5.tfrecord"
        string_val: "gs://youtube8m-ml/2/frame/train/trainI6.tfrecord"
        string_val: "gs://youtube8m-ml/2/frame/train/trainI7.tfrecord"
        string_val: "gs://youtube8m-ml/2/frame/train/trainI8.tfrecord"
        string_val: "gs://youtube8m-ml/2/frame/train/trainI9.tfrecord"
        string_val: "gs://youtube8m-ml/2/frame/train/trainIA.tfrecord"
        string_val: "gs://youtube8m-ml/2/frame/train/trainIB.tfrecord"
        string_val: "gs://youtube8m-ml/2/frame/train/trainIC.tfrecord"
        string_val: "gs://youtube8m-ml/2/frame/train/trainID.tfrecord"
        string_val: "gs://youtube8m-ml/2/frame/train/trainIE.tfrecord"
        string_val: "gs://youtube8m-ml/2/frame/train/trainIF.tfrecord"
        string_val: "gs://youtube8m-ml/2/frame/train/trainIG.tfrecord"
        string_val: "gs://youtube8m-ml/2/frame/train/trainIH.tfrecord"
        string_val: "gs://youtube8m-ml/2/frame/train/trainII.tfrecord"
        string_val: "gs://youtube8m-ml/2/frame/train/trainIJ.tfrecord"
        string_val: "gs://youtube8m-ml/2/frame/train/trainIK.tfrecord"
        string_val: "gs://youtube8m-ml/2/frame/train/trainIL.tfrecord"
        string_val: "gs://youtube8m-ml/2/frame/train/trainIM.tfrecord"
        string_val: "gs://youtube8m-ml/2/frame/train/trainIN.tfrecord"
        string_val: "gs://youtube8m-ml/2/frame/train/trainIO.tfrecord"
        string_val: "gs://youtube8m-ml/2/frame/train/trainIP.tfrecord"
        string_val: "gs://youtube8m-ml/2/frame/train/trainIQ.tfrecord"
        string_val: "gs://youtube8m-ml/2/frame/train/trainIR.tfrecord"
        string_val: "gs://youtube8m-ml/2/frame/train/trainIS.tfrecord"
        string_val: "gs://youtube8m-ml/2/frame/train/trainIT.tfrecord"
        string_val: "gs://youtube8m-ml/2/frame/train/trainIU.tfrecord"
        string_val: "gs://youtube8m-ml/2/frame/train/trainIV.tfrecord"
        string_val: "gs://youtube8m-ml/2/frame/train/trainIW.tfrecord"
        string_val: "gs://youtube8m-ml/2/frame/train/trainIX.tfrecord"
        string_val: "gs://youtube8m-ml/2/frame/train/trainIY.tfrecord"
        string_val: "gs://youtube8m-ml/2/frame/train/trainIZ.tfrecord"
        string_val: "gs://youtube8m-ml/2/frame/train/trainIa.tfrecord"
        string_val: "gs://youtube8m-ml/2/frame/train/trainIb.tfrecord"
        string_val: "gs://youtube8m-ml/2/frame/train/trainIc.tfrecord"
        string_val: "gs://youtube8m-ml/2/frame/train/trainId.tfrecord"
        string_val: "gs://youtube8m-ml/2/frame/train/trainIe.tfrecord"
        string_val: "gs://youtube8m-ml/2/frame/train/trainIf.tfrecord"
        string_val: "gs://youtube8m-ml/2/frame/train/trainIg.tfrecord"
        string_val: "gs://youtube8m-ml/2/frame/train/trainIh.tfrecord"
        string_val: "gs://youtube8m-ml/2/frame/train/trainIi.tfrecord"
        string_val: "gs://youtube8m-ml/2/frame/train/trainIj.tfrecord"
        string_val: "gs://youtube8m-ml/2/frame/train/trainIk.tfrecord"
        string_val: "gs://youtube8m-ml/2/frame/train/trainIl.tfrecord"
        string_val: "gs://youtube8m-ml/2/frame/train/trainIm.tfrecord"
        string_val: "gs://youtube8m-ml/2/frame/train/trainIn.tfrecord"
        string_val: "gs://youtube8m-ml/2/frame/train/trainIo.tfrecord"
        string_val: "gs://youtube8m-ml/2/frame/train/trainIp.tfrecord"
        string_val: "gs://youtube8m-ml/2/frame/train/trainIq.tfrecord"
        string_val: "gs://youtube8m-ml/2/frame/train/trainIr.tfrecord"
        string_val: "gs://youtube8m-ml/2/frame/train/trainIs.tfrecord"
        string_val: "gs://youtube8m-ml/2/frame/train/trainIt.tfrecord"
        string_val: "gs://youtube8m-ml/2/frame/train/trainIu.tfrecord"
        string_val: "gs://youtube8m-ml/2/frame/train/trainIv.tfrecord"
        string_val: "gs://youtube8m-ml/2/frame/train/trainIw.tfrecord"
        string_val: "gs://youtube8m-ml/2/frame/train/trainIx.tfrecord"
        string_val: "gs://youtube8m-ml/2/frame/train/trainIy.tfrecord"
        string_val: "gs://youtube8m-ml/2/frame/train/trainIz.tfrecord"
        string_val: "gs://youtube8m-ml/2/frame/train/trainJ0.tfrecord"
        string_val: "gs://youtube8m-ml/2/frame/train/trainJ1.tfrecord"
        string_val: "gs://youtube8m-ml/2/frame/train/trainJ2.tfrecord"
        string_val: "gs://youtube8m-ml/2/frame/train/trainJ3.tfrecord"
        string_val: "gs://youtube8m-ml/2/frame/train/trainJ4.tfrecord"
        string_val: "gs://youtube8m-ml/2/frame/train/trainJ5.tfrecord"
        string_val: "gs://youtube8m-ml/2/frame/train/trainJ6.tfrecord"
        string_val: "gs://youtube8m-ml/2/frame/train/trainJ7.tfrecord"
        string_val: "gs://youtube8m-ml/2/frame/train/trainJ8.tfrecord"
        string_val: "gs://youtube8m-ml/2/frame/train/trainJ9.tfrecord"
        string_val: "gs://youtube8m-ml/2/frame/train/trainJA.tfrecord"
        string_val: "gs://youtube8m-ml/2/frame/train/trainJB.tfrecord"
        string_val: "gs://youtube8m-ml/2/frame/train/trainJC.tfrecord"
        string_val: "gs://youtube8m-ml/2/frame/train/trainJD.tfrecord"
        string_val: "gs://youtube8m-ml/2/frame/train/trainJE.tfrecord"
        string_val: "gs://youtube8m-ml/2/frame/train/trainJF.tfrecord"
        string_val: "gs://youtube8m-ml/2/frame/train/trainJG.tfrecord"
        string_val: "gs://youtube8m-ml/2/frame/train/trainJH.tfrecord"
        string_val: "gs://youtube8m-ml/2/frame/train/trainJI.tfrecord"
        string_val: "gs://youtube8m-ml/2/frame/train/trainJJ.tfrecord"
        string_val: "gs://youtube8m-ml/2/frame/train/trainJK.tfrecord"
        string_val: "gs://youtube8m-ml/2/frame/train/trainJL.tfrecord"
        string_val: "gs://youtube8m-ml/2/frame/train/trainJM.tfrecord"
        string_val: "gs://youtube8m-ml/2/frame/train/trainJN.tfrecord"
        string_val: "gs://youtube8m-ml/2/frame/train/trainJO.tfrecord"
        string_val: "gs://youtube8m-ml/2/frame/train/trainJP.tfrecord"
        string_val: "gs://youtube8m-ml/2/frame/train/trainJQ.tfrecord"
        string_val: "gs://youtube8m-ml/2/frame/train/trainJR.tfrecord"
        string_val: "gs://youtube8m-ml/2/frame/train/trainJS.tfrecord"
        string_val: "gs://youtube8m-ml/2/frame/train/trainJT.tfrecord"
        string_val: "gs://youtube8m-ml/2/frame/train/trainJU.tfrecord"
        string_val: "gs://youtube8m-ml/2/frame/train/trainJV.tfrecord"
        string_val: "gs://youtube8m-ml/2/frame/train/trainJW.tfrecord"
        string_val: "gs://youtube8m-ml/2/frame/train/trainJX.tfrecord"
        string_val: "gs://youtube8m-ml/2/frame/train/trainJY.tfrecord"
        string_val: "gs://youtube8m-ml/2/frame/train/trainJZ.tfrecord"
        string_val: "gs://youtube8m-ml/2/frame/train/trainJa.tfrecord"
        string_val: "gs://youtube8m-ml/2/frame/train/trainJb.tfrecord"
        string_val: "gs://youtube8m-ml/2/frame/train/trainJc.tfrecord"
        string_val: "gs://youtube8m-ml/2/frame/train/trainJd.tfrecord"
        string_val: "gs://youtube8m-ml/2/frame/train/trainJe.tfrecord"
        string_val: "gs://youtube8m-ml/2/frame/train/trainJf.tfrecord"
        string_val: "gs://youtube8m-ml/2/frame/train/trainJg.tfrecord"
        string_val: "gs://youtube8m-ml/2/frame/train/trainJh.tfrecord"
        string_val: "gs://youtube8m-ml/2/frame/train/trainJi.tfrecord"
        string_val: "gs://youtube8m-ml/2/frame/train/trainJj.tfrecord"
        string_val: "gs://youtube8m-ml/2/frame/train/trainJk.tfrecord"
        string_val: "gs://youtube8m-ml/2/frame/train/trainJl.tfrecord"
        string_val: "gs://youtube8m-ml/2/frame/train/trainJm.tfrecord"
        string_val: "gs://youtube8m-ml/2/frame/train/trainJn.tfrecord"
        string_val: "gs://youtube8m-ml/2/frame/train/trainJo.tfrecord"
        string_val: "gs://youtube8m-ml/2/frame/train/trainJp.tfrecord"
        string_val: "gs://youtube8m-ml/2/frame/train/trainJq.tfrecord"
        string_val: "gs://youtube8m-ml/2/frame/train/trainJr.tfrecord"
        string_val: "gs://youtube8m-ml/2/frame/train/trainJs.tfrecord"
        string_val: "gs://youtube8m-ml/2/frame/train/trainJt.tfrecord"
        string_val: "gs://youtube8m-ml/2/frame/train/trainJu.tfrecord"
        string_val: "gs://youtube8m-ml/2/frame/train/trainJv.tfrecord"
        string_val: "gs://youtube8m-ml/2/frame/train/trainJw.tfrecord"
        string_val: "gs://youtube8m-ml/2/frame/train/trainJx.tfrecord"
        string_val: "gs://youtube8m-ml/2/frame/train/trainJy.tfrecord"
        string_val: "gs://youtube8m-ml/2/frame/train/trainJz.tfrecord"
        string_val: "gs://youtube8m-ml/2/frame/train/trainK0.tfrecord"
        string_val: "gs://youtube8m-ml/2/frame/train/trainK1.tfrecord"
        string_val: "gs://youtube8m-ml/2/frame/train/trainK2.tfrecord"
        string_val: "gs://youtube8m-ml/2/frame/train/trainK3.tfrecord"
        string_val: "gs://youtube8m-ml/2/frame/train/trainK4.tfrecord"
        string_val: "gs://youtube8m-ml/2/frame/train/trainK5.tfrecord"
        string_val: "gs://youtube8m-ml/2/frame/train/trainK6.tfrecord"
        string_val: "gs://youtube8m-ml/2/frame/train/trainK7.tfrecord"
        string_val: "gs://youtube8m-ml/2/frame/train/trainK8.tfrecord"
        string_val: "gs://youtube8m-ml/2/frame/train/trainK9.tfrecord"
        string_val: "gs://youtube8m-ml/2/frame/train/trainKA.tfrecord"
        string_val: "gs://youtube8m-ml/2/frame/train/trainKB.tfrecord"
        string_val: "gs://youtube8m-ml/2/frame/train/trainKC.tfrecord"
        string_val: "gs://youtube8m-ml/2/frame/train/trainKD.tfrecord"
        string_val: "gs://youtube8m-ml/2/frame/train/trainKE.tfrecord"
        string_val: "gs://youtube8m-ml/2/frame/train/trainKF.tfrecord"
        string_val: "gs://youtube8m-ml/2/frame/train/trainKG.tfrecord"
        string_val: "gs://youtube8m-ml/2/frame/train/trainKH.tfrecord"
        string_val: "gs://youtube8m-ml/2/frame/train/trainKI.tfrecord"
        string_val: "gs://youtube8m-ml/2/frame/train/trainKJ.tfrecord"
        string_val: "gs://youtube8m-ml/2/frame/train/trainKK.tfrecord"
        string_val: "gs://youtube8m-ml/2/frame/train/trainKL.tfrecord"
        string_val: "gs://youtube8m-ml/2/frame/train/trainKM.tfrecord"
        string_val: "gs://youtube8m-ml/2/frame/train/trainKN.tfrecord"
        string_val: "gs://youtube8m-ml/2/frame/train/trainKO.tfrecord"
        string_val: "gs://youtube8m-ml/2/frame/train/trainKP.tfrecord"
        string_val: "gs://youtube8m-ml/2/frame/train/trainKQ.tfrecord"
        string_val: "gs://youtube8m-ml/2/frame/train/trainKR.tfrecord"
        string_val: "gs://youtube8m-ml/2/frame/train/trainKS.tfrecord"
        string_val: "gs://youtube8m-ml/2/frame/train/trainKT.tfrecord"
        string_val: "gs://youtube8m-ml/2/frame/train/trainKU.tfrecord"
        string_val: "gs://youtube8m-ml/2/frame/train/trainKV.tfrecord"
        string_val: "gs://youtube8m-ml/2/frame/train/trainKW.tfrecord"
        string_val: "gs://youtube8m-ml/2/frame/train/trainKX.tfrecord"
        string_val: "gs://youtube8m-ml/2/frame/train/trainKY.tfrecord"
        string_val: "gs://youtube8m-ml/2/frame/train/trainKZ.tfrecord"
        string_val: "gs://youtube8m-ml/2/frame/train/trainKa.tfrecord"
        string_val: "gs://youtube8m-ml/2/frame/train/trainKb.tfrecord"
        string_val: "gs://youtube8m-ml/2/frame/train/trainKc.tfrecord"
        string_val: "gs://youtube8m-ml/2/frame/train/trainKd.tfrecord"
        string_val: "gs://youtube8m-ml/2/frame/train/trainKe.tfrecord"
        string_val: "gs://youtube8m-ml/2/frame/train/trainKf.tfrecord"
        string_val: "gs://youtube8m-ml/2/frame/train/trainKg.tfrecord"
        string_val: "gs://youtube8m-ml/2/frame/train/trainKh.tfrecord"
        string_val: "gs://youtube8m-ml/2/frame/train/trainKi.tfrecord"
        string_val: "gs://youtube8m-ml/2/frame/train/trainKj.tfrecord"
        string_val: "gs://youtube8m-ml/2/frame/train/trainKk.tfrecord"
        string_val: "gs://youtube8m-ml/2/frame/train/trainKl.tfrecord"
        string_val: "gs://youtube8m-ml/2/frame/train/trainKm.tfrecord"
        string_val: "gs://youtube8m-ml/2/frame/train/trainKn.tfrecord"
        string_val: "gs://youtube8m-ml/2/frame/train/trainKo.tfrecord"
        string_val: "gs://youtube8m-ml/2/frame/train/trainKp.tfrecord"
        string_val: "gs://youtube8m-ml/2/frame/train/trainKq.tfrecord"
        string_val: "gs://youtube8m-ml/2/frame/train/trainKr.tfrecord"
        string_val: "gs://youtube8m-ml/2/frame/train/trainKs.tfrecord"
        string_val: "gs://youtube8m-ml/2/frame/train/trainKt.tfrecord"
        string_val: "gs://youtube8m-ml/2/frame/train/trainKu.tfrecord"
        string_val: "gs://youtube8m-ml/2/frame/train/trainKv.tfrecord"
        string_val: "gs://youtube8m-ml/2/frame/train/trainKw.tfrecord"
        string_val: "gs://youtube8m-ml/2/frame/train/trainKx.tfrecord"
        string_val: "gs://youtube8m-ml/2/frame/train/trainKy.tfrecord"
        string_val: "gs://youtube8m-ml/2/frame/train/trainKz.tfrecord"
        string_val: "gs://youtube8m-ml/2/frame/train/trainL0.tfrecord"
        string_val: "gs://youtube8m-ml/2/frame/train/trainL1.tfrecord"
        string_val: "gs://youtube8m-ml/2/frame/train/trainL2.tfrecord"
        string_val: "gs://youtube8m-ml/2/frame/train/trainL3.tfrecord"
        string_val: "gs://youtube8m-ml/2/frame/train/trainL4.tfrecord"
        string_val: "gs://youtube8m-ml/2/frame/train/trainL5.tfrecord"
        string_val: "gs://youtube8m-ml/2/frame/train/trainL6.tfrecord"
        string_val: "gs://youtube8m-ml/2/frame/train/trainL7.tfrecord"
        string_val: "gs://youtube8m-ml/2/frame/train/trainL8.tfrecord"
        string_val: "gs://youtube8m-ml/2/frame/train/trainL9.tfrecord"
        string_val: "gs://youtube8m-ml/2/frame/train/trainLA.tfrecord"
        string_val: "gs://youtube8m-ml/2/frame/train/trainLB.tfrecord"
        string_val: "gs://youtube8m-ml/2/frame/train/trainLC.tfrecord"
        string_val: "gs://youtube8m-ml/2/frame/train/trainLD.tfrecord"
        string_val: "gs://youtube8m-ml/2/frame/train/trainLE.tfrecord"
        string_val: "gs://youtube8m-ml/2/frame/train/trainLF.tfrecord"
        string_val: "gs://youtube8m-ml/2/frame/train/trainLG.tfrecord"
        string_val: "gs://youtube8m-ml/2/frame/train/trainLH.tfrecord"
        string_val: "gs://youtube8m-ml/2/frame/train/trainLI.tfrecord"
        string_val: "gs://youtube8m-ml/2/frame/train/trainLJ.tfrecord"
        string_val: "gs://youtube8m-ml/2/frame/train/trainLK.tfrecord"
        string_val: "gs://youtube8m-ml/2/frame/train/trainLL.tfrecord"
        string_val: "gs://youtube8m-ml/2/frame/train/trainLM.tfrecord"
        string_val: "gs://youtube8m-ml/2/frame/train/trainLN.tfrecord"
        string_val: "gs://youtube8m-ml/2/frame/train/trainLO.tfrecord"
        string_val: "gs://youtube8m-ml/2/frame/train/trainLP.tfrecord"
        string_val: "gs://youtube8m-ml/2/frame/train/trainLQ.tfrecord"
        string_val: "gs://youtube8m-ml/2/frame/train/trainLR.tfrecord"
        string_val: "gs://youtube8m-ml/2/frame/train/trainLS.tfrecord"
        string_val: "gs://youtube8m-ml/2/frame/train/trainLT.tfrecord"
        string_val: "gs://youtube8m-ml/2/frame/train/trainLU.tfrecord"
        string_val: "gs://youtube8m-ml/2/frame/train/trainLV.tfrecord"
        string_val: "gs://youtube8m-ml/2/frame/train/trainLW.tfrecord"
        string_val: "gs://youtube8m-ml/2/frame/train/trainLX.tfrecord"
        string_val: "gs://youtube8m-ml/2/frame/train/trainLY.tfrecord"
        string_val: "gs://youtube8m-ml/2/frame/train/trainLZ.tfrecord"
        string_val: "gs://youtube8m-ml/2/frame/train/trainLa.tfrecord"
        string_val: "gs://youtube8m-ml/2/frame/train/trainLb.tfrecord"
        string_val: "gs://youtube8m-ml/2/frame/train/trainLc.tfrecord"
        string_val: "gs://youtube8m-ml/2/frame/train/trainLd.tfrecord"
        string_val: "gs://youtube8m-ml/2/frame/train/trainLe.tfrecord"
        string_val: "gs://youtube8m-ml/2/frame/train/trainLf.tfrecord"
        string_val: "gs://youtube8m-ml/2/frame/train/trainLg.tfrecord"
        string_val: "gs://youtube8m-ml/2/frame/train/trainLh.tfrecord"
        string_val: "gs://youtube8m-ml/2/frame/train/trainLi.tfrecord"
        string_val: "gs://youtube8m-ml/2/frame/train/trainLj.tfrecord"
        string_val: "gs://youtube8m-ml/2/frame/train/trainLk.tfrecord"
        string_val: "gs://youtube8m-ml/2/frame/train/trainLl.tfrecord"
        string_val: "gs://youtube8m-ml/2/frame/train/trainLm.tfrecord"
        string_val: "gs://youtube8m-ml/2/frame/train/trainLn.tfrecord"
        string_val: "gs://youtube8m-ml/2/frame/train/trainLo.tfrecord"
        string_val: "gs://youtube8m-ml/2/frame/train/trainLp.tfrecord"
        string_val: "gs://youtube8m-ml/2/frame/train/trainLq.tfrecord"
        string_val: "gs://youtube8m-ml/2/frame/train/trainLr.tfrecord"
        string_val: "gs://youtube8m-ml/2/frame/train/trainLs.tfrecord"
        string_val: "gs://youtube8m-ml/2/frame/train/trainLt.tfrecord"
        string_val: "gs://youtube8m-ml/2/frame/train/trainLu.tfrecord"
        string_val: "gs://youtube8m-ml/2/frame/train/trainLv.tfrecord"
        string_val: "gs://youtube8m-ml/2/frame/train/trainLw.tfrecord"
        string_val: "gs://youtube8m-ml/2/frame/train/trainLx.tfrecord"
        string_val: "gs://youtube8m-ml/2/frame/train/trainLy.tfrecord"
        string_val: "gs://youtube8m-ml/2/frame/train/trainLz.tfrecord"
        string_val: "gs://youtube8m-ml/2/frame/train/trainM0.tfrecord"
        string_val: "gs://youtube8m-ml/2/frame/train/trainM1.tfrecord"
        string_val: "gs://youtube8m-ml/2/frame/train/trainM2.tfrecord"
        string_val: "gs://youtube8m-ml/2/frame/train/trainM3.tfrecord"
        string_val: "gs://youtube8m-ml/2/frame/train/trainM4.tfrecord"
        string_val: "gs://youtube8m-ml/2/frame/train/trainM5.tfrecord"
        string_val: "gs://youtube8m-ml/2/frame/train/trainM6.tfrecord"
        string_val: "gs://youtube8m-ml/2/frame/train/trainM7.tfrecord"
        string_val: "gs://youtube8m-ml/2/frame/train/trainM8.tfrecord"
        string_val: "gs://youtube8m-ml/2/frame/train/trainM9.tfrecord"
        string_val: "gs://youtube8m-ml/2/frame/train/trainMA.tfrecord"
        string_val: "gs://youtube8m-ml/2/frame/train/trainMB.tfrecord"
        string_val: "gs://youtube8m-ml/2/frame/train/trainMC.tfrecord"
        string_val: "gs://youtube8m-ml/2/frame/train/trainMD.tfrecord"
        string_val: "gs://youtube8m-ml/2/frame/train/trainME.tfrecord"
        string_val: "gs://youtube8m-ml/2/frame/train/trainMF.tfrecord"
        string_val: "gs://youtube8m-ml/2/frame/train/trainMG.tfrecord"
        string_val: "gs://youtube8m-ml/2/frame/train/trainMH.tfrecord"
        string_val: "gs://youtube8m-ml/2/frame/train/trainMI.tfrecord"
        string_val: "gs://youtube8m-ml/2/frame/train/trainMJ.tfrecord"
        string_val: "gs://youtube8m-ml/2/frame/train/trainMK.tfrecord"
        string_val: "gs://youtube8m-ml/2/frame/train/trainML.tfrecord"
        string_val: "gs://youtube8m-ml/2/frame/train/trainMM.tfrecord"
        string_val: "gs://youtube8m-ml/2/frame/train/trainMN.tfrecord"
        string_val: "gs://youtube8m-ml/2/frame/train/trainMO.tfrecord"
        string_val: "gs://youtube8m-ml/2/frame/train/trainMP.tfrecord"
        string_val: "gs://youtube8m-ml/2/frame/train/trainMQ.tfrecord"
        string_val: "gs://youtube8m-ml/2/frame/train/trainMR.tfrecord"
        string_val: "gs://youtube8m-ml/2/frame/train/trainMS.tfrecord"
        string_val: "gs://youtube8m-ml/2/frame/train/trainMT.tfrecord"
        string_val: "gs://youtube8m-ml/2/frame/train/trainMU.tfrecord"
        string_val: "gs://youtube8m-ml/2/frame/train/trainMV.tfrecord"
        string_val: "gs://youtube8m-ml/2/frame/train/trainMW.tfrecord"
        string_val: "gs://youtube8m-ml/2/frame/train/trainMX.tfrecord"
        string_val: "gs://youtube8m-ml/2/frame/train/trainMY.tfrecord"
        string_val: "gs://youtube8m-ml/2/frame/train/trainMZ.tfrecord"
        string_val: "gs://youtube8m-ml/2/frame/train/trainMa.tfrecord"
        string_val: "gs://youtube8m-ml/2/frame/train/trainMb.tfrecord"
        string_val: "gs://youtube8m-ml/2/frame/train/trainMc.tfrecord"
        string_val: "gs://youtube8m-ml/2/frame/train/trainMd.tfrecord"
        string_val: "gs://youtube8m-ml/2/frame/train/trainMe.tfrecord"
        string_val: "gs://youtube8m-ml/2/frame/train/trainMf.tfrecord"
        string_val: "gs://youtube8m-ml/2/frame/train/trainMg.tfrecord"
        string_val: "gs://youtube8m-ml/2/frame/train/trainMh.tfrecord"
        string_val: "gs://youtube8m-ml/2/frame/train/trainMi.tfrecord"
        string_val: "gs://youtube8m-ml/2/frame/train/trainMj.tfrecord"
        string_val: "gs://youtube8m-ml/2/frame/train/trainMk.tfrecord"
        string_val: "gs://youtube8m-ml/2/frame/train/trainMl.tfrecord"
        string_val: "gs://youtube8m-ml/2/frame/train/trainMm.tfrecord"
        string_val: "gs://youtube8m-ml/2/frame/train/trainMn.tfrecord"
        string_val: "gs://youtube8m-ml/2/frame/train/trainMo.tfrecord"
        string_val: "gs://youtube8m-ml/2/frame/train/trainMp.tfrecord"
        string_val: "gs://youtube8m-ml/2/frame/train/trainMq.tfrecord"
        string_val: "gs://youtube8m-ml/2/frame/train/trainMr.tfrecord"
        string_val: "gs://youtube8m-ml/2/frame/train/trainMs.tfrecord"
        string_val: "gs://youtube8m-ml/2/frame/train/trainMt.tfrecord"
        string_val: "gs://youtube8m-ml/2/frame/train/trainMu.tfrecord"
        string_val: "gs://youtube8m-ml/2/frame/train/trainMv.tfrecord"
        string_val: "gs://youtube8m-ml/2/frame/train/trainMw.tfrecord"
        string_val: "gs://youtube8m-ml/2/frame/train/trainMx.tfrecord"
        string_val: "gs://youtube8m-ml/2/frame/train/trainMy.tfrecord"
        string_val: "gs://youtube8m-ml/2/frame/train/trainMz.tfrecord"
        string_val: "gs://youtube8m-ml/2/frame/train/trainN0.tfrecord"
        string_val: "gs://youtube8m-ml/2/frame/train/trainN1.tfrecord"
        string_val: "gs://youtube8m-ml/2/frame/train/trainN2.tfrecord"
        string_val: "gs://youtube8m-ml/2/frame/train/trainN3.tfrecord"
        string_val: "gs://youtube8m-ml/2/frame/train/trainN4.tfrecord"
        string_val: "gs://youtube8m-ml/2/frame/train/trainN5.tfrecord"
        string_val: "gs://youtube8m-ml/2/frame/train/trainN6.tfrecord"
        string_val: "gs://youtube8m-ml/2/frame/train/trainN7.tfrecord"
        string_val: "gs://youtube8m-ml/2/frame/train/trainN8.tfrecord"
        string_val: "gs://youtube8m-ml/2/frame/train/trainN9.tfrecord"
        string_val: "gs://youtube8m-ml/2/frame/train/trainNA.tfrecord"
        string_val: "gs://youtube8m-ml/2/frame/train/trainNB.tfrecord"
        string_val: "gs://youtube8m-ml/2/frame/train/trainNC.tfrecord"
        string_val: "gs://youtube8m-ml/2/frame/train/trainND.tfrecord"
        string_val: "gs://youtube8m-ml/2/frame/train/trainNE.tfrecord"
        string_val: "gs://youtube8m-ml/2/frame/train/trainNF.tfrecord"
        string_val: "gs://youtube8m-ml/2/frame/train/trainNG.tfrecord"
        string_val: "gs://youtube8m-ml/2/frame/train/trainNH.tfrecord"
        string_val: "gs://youtube8m-ml/2/frame/train/trainNI.tfrecord"
        string_val: "gs://youtube8m-ml/2/frame/train/trainNJ.tfrecord"
        string_val: "gs://youtube8m-ml/2/frame/train/trainNK.tfrecord"
        string_val: "gs://youtube8m-ml/2/frame/train/trainNL.tfrecord"
        string_val: "gs://youtube8m-ml/2/frame/train/trainNM.tfrecord"
        string_val: "gs://youtube8m-ml/2/frame/train/trainNN.tfrecord"
        string_val: "gs://youtube8m-ml/2/frame/train/trainNO.tfrecord"
        string_val: "gs://youtube8m-ml/2/frame/train/trainNP.tfrecord"
        string_val: "gs://youtube8m-ml/2/frame/train/trainNQ.tfrecord"
        string_val: "gs://youtube8m-ml/2/frame/train/trainNR.tfrecord"
        string_val: "gs://youtube8m-ml/2/frame/train/trainNS.tfrecord"
        string_val: "gs://youtube8m-ml/2/frame/train/trainNT.tfrecord"
        string_val: "gs://youtube8m-ml/2/frame/train/trainNU.tfrecord"
        string_val: "gs://youtube8m-ml/2/frame/train/trainNV.tfrecord"
        string_val: "gs://youtube8m-ml/2/frame/train/trainNW.tfrecord"
        string_val: "gs://youtube8m-ml/2/frame/train/trainNX.tfrecord"
        string_val: "gs://youtube8m-ml/2/frame/train/trainNY.tfrecord"
        string_val: "gs://youtube8m-ml/2/frame/train/trainNZ.tfrecord"
        string_val: "gs://youtube8m-ml/2/frame/train/trainNa.tfrecord"
        string_val: "gs://youtube8m-ml/2/frame/train/trainNb.tfrecord"
        string_val: "gs://youtube8m-ml/2/frame/train/trainNc.tfrecord"
        string_val: "gs://youtube8m-ml/2/frame/train/trainNd.tfrecord"
        string_val: "gs://youtube8m-ml/2/frame/train/trainNe.tfrecord"
        string_val: "gs://youtube8m-ml/2/frame/train/trainNf.tfrecord"
        string_val: "gs://youtube8m-ml/2/frame/train/trainNg.tfrecord"
        string_val: "gs://youtube8m-ml/2/frame/train/trainNh.tfrecord"
        string_val: "gs://youtube8m-ml/2/frame/train/trainNi.tfrecord"
        string_val: "gs://youtube8m-ml/2/frame/train/trainNj.tfrecord"
        string_val: "gs://youtube8m-ml/2/frame/train/trainNk.tfrecord"
        string_val: "gs://youtube8m-ml/2/frame/train/trainNl.tfrecord"
        string_val: "gs://youtube8m-ml/2/frame/train/trainNm.tfrecord"
        string_val: "gs://youtube8m-ml/2/frame/train/trainNn.tfrecord"
        string_val: "gs://youtube8m-ml/2/frame/train/trainNo.tfrecord"
        string_val: "gs://youtube8m-ml/2/frame/train/trainNp.tfrecord"
        string_val: "gs://youtube8m-ml/2/frame/train/trainNq.tfrecord"
        string_val: "gs://youtube8m-ml/2/frame/train/trainNr.tfrecord"
        string_val: "gs://youtube8m-ml/2/frame/train/trainNs.tfrecord"
        string_val: "gs://youtube8m-ml/2/frame/train/trainNt.tfrecord"
        string_val: "gs://youtube8m-ml/2/frame/train/trainNu.tfrecord"
        string_val: "gs://youtube8m-ml/2/frame/train/trainNv.tfrecord"
        string_val: "gs://youtube8m-ml/2/frame/train/trainNw.tfrecord"
        string_val: "gs://youtube8m-ml/2/frame/train/trainNx.tfrecord"
        string_val: "gs://youtube8m-ml/2/frame/train/trainNy.tfrecord"
        string_val: "gs://youtube8m-ml/2/frame/train/trainNz.tfrecord"
        string_val: "gs://youtube8m-ml/2/frame/train/trainO0.tfrecord"
        string_val: "gs://youtube8m-ml/2/frame/train/trainO1.tfrecord"
        string_val: "gs://youtube8m-ml/2/frame/train/trainO2.tfrecord"
        string_val: "gs://youtube8m-ml/2/frame/train/trainO3.tfrecord"
        string_val: "gs://youtube8m-ml/2/frame/train/trainO4.tfrecord"
        string_val: "gs://youtube8m-ml/2/frame/train/trainO5.tfrecord"
        string_val: "gs://youtube8m-ml/2/frame/train/trainO6.tfrecord"
        string_val: "gs://youtube8m-ml/2/frame/train/trainO7.tfrecord"
        string_val: "gs://youtube8m-ml/2/frame/train/trainO8.tfrecord"
        string_val: "gs://youtube8m-ml/2/frame/train/trainO9.tfrecord"
        string_val: "gs://youtube8m-ml/2/frame/train/trainOA.tfrecord"
        string_val: "gs://youtube8m-ml/2/frame/train/trainOB.tfrecord"
        string_val: "gs://youtube8m-ml/2/frame/train/trainOC.tfrecord"
        string_val: "gs://youtube8m-ml/2/frame/train/trainOD.tfrecord"
        string_val: "gs://youtube8m-ml/2/frame/train/trainOE.tfrecord"
        string_val: "gs://youtube8m-ml/2/frame/train/trainOF.tfrecord"
        string_val: "gs://youtube8m-ml/2/frame/train/trainOG.tfrecord"
        string_val: "gs://youtube8m-ml/2/frame/train/trainOH.tfrecord"
        string_val: "gs://youtube8m-ml/2/frame/train/trainOI.tfrecord"
        string_val: "gs://youtube8m-ml/2/frame/train/trainOJ.tfrecord"
        string_val: "gs://youtube8m-ml/2/frame/train/trainOK.tfrecord"
        string_val: "gs://youtube8m-ml/2/frame/train/trainOL.tfrecord"
        string_val: "gs://youtube8m-ml/2/frame/train/trainOM.tfrecord"
        string_val: "gs://youtube8m-ml/2/frame/train/trainON.tfrecord"
        string_val: "gs://youtube8m-ml/2/frame/train/trainOO.tfrecord"
        string_val: "gs://youtube8m-ml/2/frame/train/trainOP.tfrecord"
        string_val: "gs://youtube8m-ml/2/frame/train/trainOQ.tfrecord"
        string_val: "gs://youtube8m-ml/2/frame/train/trainOR.tfrecord"
        string_val: "gs://youtube8m-ml/2/frame/train/trainOS.tfrecord"
        string_val: "gs://youtube8m-ml/2/frame/train/trainOT.tfrecord"
        string_val: "gs://youtube8m-ml/2/frame/train/trainOU.tfrecord"
        string_val: "gs://youtube8m-ml/2/frame/train/trainOV.tfrecord"
        string_val: "gs://youtube8m-ml/2/frame/train/trainOW.tfrecord"
        string_val: "gs://youtube8m-ml/2/frame/train/trainOX.tfrecord"
        string_val: "gs://youtube8m-ml/2/frame/train/trainOY.tfrecord"
        string_val: "gs://youtube8m-ml/2/frame/train/trainOZ.tfrecord"
        string_val: "gs://youtube8m-ml/2/frame/train/trainOa.tfrecord"
        string_val: "gs://youtube8m-ml/2/frame/train/trainOb.tfrecord"
        string_val: "gs://youtube8m-ml/2/frame/train/trainOc.tfrecord"
        string_val: "gs://youtube8m-ml/2/frame/train/trainOd.tfrecord"
        string_val: "gs://youtube8m-ml/2/frame/train/trainOe.tfrecord"
        string_val: "gs://youtube8m-ml/2/frame/train/trainOf.tfrecord"
        string_val: "gs://youtube8m-ml/2/frame/train/trainOg.tfrecord"
        string_val: "gs://youtube8m-ml/2/frame/train/trainOh.tfrecord"
        string_val: "gs://youtube8m-ml/2/frame/train/trainOi.tfrecord"
        string_val: "gs://youtube8m-ml/2/frame/train/trainOj.tfrecord"
        string_val: "gs://youtube8m-ml/2/frame/train/trainOk.tfrecord"
        string_val: "gs://youtube8m-ml/2/frame/train/trainOl.tfrecord"
        string_val: "gs://youtube8m-ml/2/frame/train/trainOm.tfrecord"
        string_val: "gs://youtube8m-ml/2/frame/train/trainOn.tfrecord"
        string_val: "gs://youtube8m-ml/2/frame/train/trainOo.tfrecord"
        string_val: "gs://youtube8m-ml/2/frame/train/trainOp.tfrecord"
        string_val: "gs://youtube8m-ml/2/frame/train/trainOq.tfrecord"
        string_val: "gs://youtube8m-ml/2/frame/train/trainOr.tfrecord"
        string_val: "gs://youtube8m-ml/2/frame/train/trainOs.tfrecord"
        string_val: "gs://youtube8m-ml/2/frame/train/trainOt.tfrecord"
        string_val: "gs://youtube8m-ml/2/frame/train/trainOu.tfrecord"
        string_val: "gs://youtube8m-ml/2/frame/train/trainOv.tfrecord"
        string_val: "gs://youtube8m-ml/2/frame/train/trainOw.tfrecord"
        string_val: "gs://youtube8m-ml/2/frame/train/trainOx.tfrecord"
        string_val: "gs://youtube8m-ml/2/frame/train/trainOy.tfrecord"
        string_val: "gs://youtube8m-ml/2/frame/train/trainOz.tfrecord"
        string_val: "gs://youtube8m-ml/2/frame/train/trainP0.tfrecord"
        string_val: "gs://youtube8m-ml/2/frame/train/trainP1.tfrecord"
        string_val: "gs://youtube8m-ml/2/frame/train/trainP2.tfrecord"
        string_val: "gs://youtube8m-ml/2/frame/train/trainP3.tfrecord"
        string_val: "gs://youtube8m-ml/2/frame/train/trainP4.tfrecord"
        string_val: "gs://youtube8m-ml/2/frame/train/trainP5.tfrecord"
        string_val: "gs://youtube8m-ml/2/frame/train/trainP6.tfrecord"
        string_val: "gs://youtube8m-ml/2/frame/train/trainP7.tfrecord"
        string_val: "gs://youtube8m-ml/2/frame/train/trainP8.tfrecord"
        string_val: "gs://youtube8m-ml/2/frame/train/trainP9.tfrecord"
        string_val: "gs://youtube8m-ml/2/frame/train/trainPA.tfrecord"
        string_val: "gs://youtube8m-ml/2/frame/train/trainPB.tfrecord"
        string_val: "gs://youtube8m-ml/2/frame/train/trainPC.tfrecord"
        string_val: "gs://youtube8m-ml/2/frame/train/trainPD.tfrecord"
        string_val: "gs://youtube8m-ml/2/frame/train/trainPE.tfrecord"
        string_val: "gs://youtube8m-ml/2/frame/train/trainPF.tfrecord"
        string_val: "gs://youtube8m-ml/2/frame/train/trainPG.tfrecord"
        string_val: "gs://youtube8m-ml/2/frame/train/trainPH.tfrecord"
        string_val: "gs://youtube8m-ml/2/frame/train/trainPI.tfrecord"
        string_val: "gs://youtube8m-ml/2/frame/train/trainPJ.tfrecord"
        string_val: "gs://youtube8m-ml/2/frame/train/trainPK.tfrecord"
        string_val: "gs://youtube8m-ml/2/frame/train/trainPL.tfrecord"
        string_val: "gs://youtube8m-ml/2/frame/train/trainPM.tfrecord"
        string_val: "gs://youtube8m-ml/2/frame/train/trainPN.tfrecord"
        string_val: "gs://youtube8m-ml/2/frame/train/trainPO.tfrecord"
        string_val: "gs://youtube8m-ml/2/frame/train/trainPP.tfrecord"
        string_val: "gs://youtube8m-ml/2/frame/train/trainPQ.tfrecord"
        string_val: "gs://youtube8m-ml/2/frame/train/trainPR.tfrecord"
        string_val: "gs://youtube8m-ml/2/frame/train/trainPS.tfrecord"
        string_val: "gs://youtube8m-ml/2/frame/train/trainPT.tfrecord"
        string_val: "gs://youtube8m-ml/2/frame/train/trainPU.tfrecord"
        string_val: "gs://youtube8m-ml/2/frame/train/trainPV.tfrecord"
        string_val: "gs://youtube8m-ml/2/frame/train/trainPW.tfrecord"
        string_val: "gs://youtube8m-ml/2/frame/train/trainPX.tfrecord"
        string_val: "gs://youtube8m-ml/2/frame/train/trainPY.tfrecord"
        string_val: "gs://youtube8m-ml/2/frame/train/trainPZ.tfrecord"
        string_val: "gs://youtube8m-ml/2/frame/train/trainPa.tfrecord"
        string_val: "gs://youtube8m-ml/2/frame/train/trainPb.tfrecord"
        string_val: "gs://youtube8m-ml/2/frame/train/trainPc.tfrecord"
        string_val: "gs://youtube8m-ml/2/frame/train/trainPd.tfrecord"
        string_val: "gs://youtube8m-ml/2/frame/train/trainPe.tfrecord"
        string_val: "gs://youtube8m-ml/2/frame/train/trainPf.tfrecord"
        string_val: "gs://youtube8m-ml/2/frame/train/trainPg.tfrecord"
        string_val: "gs://youtube8m-ml/2/frame/train/trainPh.tfrecord"
        string_val: "gs://youtube8m-ml/2/frame/train/trainPi.tfrecord"
        string_val: "gs://youtube8m-ml/2/frame/train/trainPj.tfrecord"
        string_val: "gs://youtube8m-ml/2/frame/train/trainPk.tfrecord"
        string_val: "gs://youtube8m-ml/2/frame/train/trainPl.tfrecord"
        string_val: "gs://youtube8m-ml/2/frame/train/trainPm.tfrecord"
        string_val: "gs://youtube8m-ml/2/frame/train/trainPn.tfrecord"
        string_val: "gs://youtube8m-ml/2/frame/train/trainPo.tfrecord"
        string_val: "gs://youtube8m-ml/2/frame/train/trainPp.tfrecord"
        string_val: "gs://youtube8m-ml/2/frame/train/trainPq.tfrecord"
        string_val: "gs://youtube8m-ml/2/frame/train/trainPr.tfrecord"
        string_val: "gs://youtube8m-ml/2/frame/train/trainPs.tfrecord"
        string_val: "gs://youtube8m-ml/2/frame/train/trainPt.tfrecord"
        string_val: "gs://youtube8m-ml/2/frame/train/trainPu.tfrecord"
        string_val: "gs://youtube8m-ml/2/frame/train/trainPv.tfrecord"
        string_val: "gs://youtube8m-ml/2/frame/train/trainPw.tfrecord"
        string_val: "gs://youtube8m-ml/2/frame/train/trainPx.tfrecord"
        string_val: "gs://youtube8m-ml/2/frame/train/trainPy.tfrecord"
        string_val: "gs://youtube8m-ml/2/frame/train/trainPz.tfrecord"
        string_val: "gs://youtube8m-ml/2/frame/train/trainQ0.tfrecord"
        string_val: "gs://youtube8m-ml/2/frame/train/trainQ1.tfrecord"
        string_val: "gs://youtube8m-ml/2/frame/train/trainQ2.tfrecord"
        string_val: "gs://youtube8m-ml/2/frame/train/trainQ3.tfrecord"
        string_val: "gs://youtube8m-ml/2/frame/train/trainQ4.tfrecord"
        string_val: "gs://youtube8m-ml/2/frame/train/trainQ5.tfrecord"
        string_val: "gs://youtube8m-ml/2/frame/train/trainQ6.tfrecord"
        string_val: "gs://youtube8m-ml/2/frame/train/trainQ7.tfrecord"
        string_val: "gs://youtube8m-ml/2/frame/train/trainQ8.tfrecord"
        string_val: "gs://youtube8m-ml/2/frame/train/trainQ9.tfrecord"
        string_val: "gs://youtube8m-ml/2/frame/train/trainQA.tfrecord"
        string_val: "gs://youtube8m-ml/2/frame/train/trainQB.tfrecord"
        string_val: "gs://youtube8m-ml/2/frame/train/trainQC.tfrecord"
        string_val: "gs://youtube8m-ml/2/frame/train/trainQD.tfrecord"
        string_val: "gs://youtube8m-ml/2/frame/train/trainQE.tfrecord"
        string_val: "gs://youtube8m-ml/2/frame/train/trainQF.tfrecord"
        string_val: "gs://youtube8m-ml/2/frame/train/trainQG.tfrecord"
        string_val: "gs://youtube8m-ml/2/frame/train/trainQH.tfrecord"
        string_val: "gs://youtube8m-ml/2/frame/train/trainQI.tfrecord"
        string_val: "gs://youtube8m-ml/2/frame/train/trainQJ.tfrecord"
        string_val: "gs://youtube8m-ml/2/frame/train/trainQK.tfrecord"
        string_val: "gs://youtube8m-ml/2/frame/train/trainQL.tfrecord"
        string_val: "gs://youtube8m-ml/2/frame/train/trainQM.tfrecord"
        string_val: "gs://youtube8m-ml/2/frame/train/trainQN.tfrecord"
        string_val: "gs://youtube8m-ml/2/frame/train/trainQO.tfrecord"
        string_val: "gs://youtube8m-ml/2/frame/train/trainQP.tfrecord"
        string_val: "gs://youtube8m-ml/2/frame/train/trainQQ.tfrecord"
        string_val: "gs://youtube8m-ml/2/frame/train/trainQR.tfrecord"
        string_val: "gs://youtube8m-ml/2/frame/train/trainQS.tfrecord"
        string_val: "gs://youtube8m-ml/2/frame/train/trainQT.tfrecord"
        string_val: "gs://youtube8m-ml/2/frame/train/trainQU.tfrecord"
        string_val: "gs://youtube8m-ml/2/frame/train/trainQV.tfrecord"
        string_val: "gs://youtube8m-ml/2/frame/train/trainQW.tfrecord"
        string_val: "gs://youtube8m-ml/2/frame/train/trainQX.tfrecord"
        string_val: "gs://youtube8m-ml/2/frame/train/trainQY.tfrecord"
        string_val: "gs://youtube8m-ml/2/frame/train/trainQZ.tfrecord"
        string_val: "gs://youtube8m-ml/2/frame/train/trainQa.tfrecord"
        string_val: "gs://youtube8m-ml/2/frame/train/trainQb.tfrecord"
        string_val: "gs://youtube8m-ml/2/frame/train/trainQc.tfrecord"
        string_val: "gs://youtube8m-ml/2/frame/train/trainQd.tfrecord"
        string_val: "gs://youtube8m-ml/2/frame/train/trainQe.tfrecord"
        string_val: "gs://youtube8m-ml/2/frame/train/trainQf.tfrecord"
        string_val: "gs://youtube8m-ml/2/frame/train/trainQg.tfrecord"
        string_val: "gs://youtube8m-ml/2/frame/train/trainQh.tfrecord"
        string_val: "gs://youtube8m-ml/2/frame/train/trainQi.tfrecord"
        string_val: "gs://youtube8m-ml/2/frame/train/trainQj.tfrecord"
        string_val: "gs://youtube8m-ml/2/frame/train/trainQk.tfrecord"
        string_val: "gs://youtube8m-ml/2/frame/train/trainQl.tfrecord"
        string_val: "gs://youtube8m-ml/2/frame/train/trainQm.tfrecord"
        string_val: "gs://youtube8m-ml/2/frame/train/trainQn.tfrecord"
        string_val: "gs://youtube8m-ml/2/frame/train/trainQo.tfrecord"
        string_val: "gs://youtube8m-ml/2/frame/train/trainQp.tfrecord"
        string_val: "gs://youtube8m-ml/2/frame/train/trainQq.tfrecord"
        string_val: "gs://youtube8m-ml/2/frame/train/trainQr.tfrecord"
        string_val: "gs://youtube8m-ml/2/frame/train/trainQs.tfrecord"
        string_val: "gs://youtube8m-ml/2/frame/train/trainQt.tfrecord"
        string_val: "gs://youtube8m-ml/2/frame/train/trainQu.tfrecord"
        string_val: "gs://youtube8m-ml/2/frame/train/trainQv.tfrecord"
        string_val: "gs://youtube8m-ml/2/frame/train/trainQw.tfrecord"
        string_val: "gs://youtube8m-ml/2/frame/train/trainQx.tfrecord"
        string_val: "gs://youtube8m-ml/2/frame/train/trainQy.tfrecord"
        string_val: "gs://youtube8m-ml/2/frame/train/trainQz.tfrecord"
        string_val: "gs://youtube8m-ml/2/frame/train/trainR0.tfrecord"
        string_val: "gs://youtube8m-ml/2/frame/train/trainR1.tfrecord"
        string_val: "gs://youtube8m-ml/2/frame/train/trainR2.tfrecord"
        string_val: "gs://youtube8m-ml/2/frame/train/trainR3.tfrecord"
        string_val: "gs://youtube8m-ml/2/frame/train/trainR4.tfrecord"
        string_val: "gs://youtube8m-ml/2/frame/train/trainR5.tfrecord"
        string_val: "gs://youtube8m-ml/2/frame/train/trainR6.tfrecord"
        string_val: "gs://youtube8m-ml/2/frame/train/trainR7.tfrecord"
        string_val: "gs://youtube8m-ml/2/frame/train/trainR8.tfrecord"
        string_val: "gs://youtube8m-ml/2/frame/train/trainR9.tfrecord"
        string_val: "gs://youtube8m-ml/2/frame/train/trainRA.tfrecord"
        string_val: "gs://youtube8m-ml/2/frame/train/trainRB.tfrecord"
        string_val: "gs://youtube8m-ml/2/frame/train/trainRC.tfrecord"
        string_val: "gs://youtube8m-ml/2/frame/train/trainRD.tfrecord"
        string_val: "gs://youtube8m-ml/2/frame/train/trainRE.tfrecord"
        string_val: "gs://youtube8m-ml/2/frame/train/trainRF.tfrecord"
        string_val: "gs://youtube8m-ml/2/frame/train/trainRG.tfrecord"
        string_val: "gs://youtube8m-ml/2/frame/train/trainRH.tfrecord"
        string_val: "gs://youtube8m-ml/2/frame/train/trainRI.tfrecord"
        string_val: "gs://youtube8m-ml/2/frame/train/trainRJ.tfrecord"
        string_val: "gs://youtube8m-ml/2/frame/train/trainRK.tfrecord"
        string_val: "gs://youtube8m-ml/2/frame/train/trainRL.tfrecord"
        string_val: "gs://youtube8m-ml/2/frame/train/trainRM.tfrecord"
        string_val: "gs://youtube8m-ml/2/frame/train/trainRN.tfrecord"
        string_val: "gs://youtube8m-ml/2/frame/train/trainRO.tfrecord"
        string_val: "gs://youtube8m-ml/2/frame/train/trainRP.tfrecord"
        string_val: "gs://youtube8m-ml/2/frame/train/trainRQ.tfrecord"
        string_val: "gs://youtube8m-ml/2/frame/train/trainRR.tfrecord"
        string_val: "gs://youtube8m-ml/2/frame/train/trainRS.tfrecord"
        string_val: "gs://youtube8m-ml/2/frame/train/trainRT.tfrecord"
        string_val: "gs://youtube8m-ml/2/frame/train/trainRU.tfrecord"
        string_val: "gs://youtube8m-ml/2/frame/train/trainRV.tfrecord"
        string_val: "gs://youtube8m-ml/2/frame/train/trainRW.tfrecord"
        string_val: "gs://youtube8m-ml/2/frame/train/trainRX.tfrecord"
        string_val: "gs://youtube8m-ml/2/frame/train/trainRY.tfrecord"
        string_val: "gs://youtube8m-ml/2/frame/train/trainRZ.tfrecord"
        string_val: "gs://youtube8m-ml/2/frame/train/trainRa.tfrecord"
        string_val: "gs://youtube8m-ml/2/frame/train/trainRb.tfrecord"
        string_val: "gs://youtube8m-ml/2/frame/train/trainRc.tfrecord"
        string_val: "gs://youtube8m-ml/2/frame/train/trainRd.tfrecord"
        string_val: "gs://youtube8m-ml/2/frame/train/trainRe.tfrecord"
        string_val: "gs://youtube8m-ml/2/frame/train/trainRf.tfrecord"
        string_val: "gs://youtube8m-ml/2/frame/train/trainRg.tfrecord"
        string_val: "gs://youtube8m-ml/2/frame/train/trainRh.tfrecord"
        string_val: "gs://youtube8m-ml/2/frame/train/trainRi.tfrecord"
        string_val: "gs://youtube8m-ml/2/frame/train/trainRj.tfrecord"
        string_val: "gs://youtube8m-ml/2/frame/train/trainRk.tfrecord"
        string_val: "gs://youtube8m-ml/2/frame/train/trainRl.tfrecord"
        string_val: "gs://youtube8m-ml/2/frame/train/trainRm.tfrecord"
        string_val: "gs://youtube8m-ml/2/frame/train/trainRn.tfrecord"
        string_val: "gs://youtube8m-ml/2/frame/train/trainRo.tfrecord"
        string_val: "gs://youtube8m-ml/2/frame/train/trainRp.tfrecord"
        string_val: "gs://youtube8m-ml/2/frame/train/trainRq.tfrecord"
        string_val: "gs://youtube8m-ml/2/frame/train/trainRr.tfrecord"
        string_val: "gs://youtube8m-ml/2/frame/train/trainRs.tfrecord"
        string_val: "gs://youtube8m-ml/2/frame/train/trainRt.tfrecord"
        string_val: "gs://youtube8m-ml/2/frame/train/trainRu.tfrecord"
        string_val: "gs://youtube8m-ml/2/frame/train/trainRv.tfrecord"
        string_val: "gs://youtube8m-ml/2/frame/train/trainRw.tfrecord"
        string_val: "gs://youtube8m-ml/2/frame/train/trainRx.tfrecord"
        string_val: "gs://youtube8m-ml/2/frame/train/trainRy.tfrecord"
        string_val: "gs://youtube8m-ml/2/frame/train/trainRz.tfrecord"
        string_val: "gs://youtube8m-ml/2/frame/train/trainS0.tfrecord"
        string_val: "gs://youtube8m-ml/2/frame/train/trainS1.tfrecord"
        string_val: "gs://youtube8m-ml/2/frame/train/trainS2.tfrecord"
        string_val: "gs://youtube8m-ml/2/frame/train/trainS3.tfrecord"
        string_val: "gs://youtube8m-ml/2/frame/train/trainS4.tfrecord"
        string_val: "gs://youtube8m-ml/2/frame/train/trainS5.tfrecord"
        string_val: "gs://youtube8m-ml/2/frame/train/trainS6.tfrecord"
        string_val: "gs://youtube8m-ml/2/frame/train/trainS7.tfrecord"
        string_val: "gs://youtube8m-ml/2/frame/train/trainS8.tfrecord"
        string_val: "gs://youtube8m-ml/2/frame/train/trainS9.tfrecord"
        string_val: "gs://youtube8m-ml/2/frame/train/trainSA.tfrecord"
        string_val: "gs://youtube8m-ml/2/frame/train/trainSB.tfrecord"
        string_val: "gs://youtube8m-ml/2/frame/train/trainSC.tfrecord"
        string_val: "gs://youtube8m-ml/2/frame/train/trainSD.tfrecord"
        string_val: "gs://youtube8m-ml/2/frame/train/trainSE.tfrecord"
        string_val: "gs://youtube8m-ml/2/frame/train/trainSF.tfrecord"
        string_val: "gs://youtube8m-ml/2/frame/train/trainSG.tfrecord"
        string_val: "gs://youtube8m-ml/2/frame/train/trainSH.tfrecord"
        string_val: "gs://youtube8m-ml/2/frame/train/trainSI.tfrecord"
        string_val: "gs://youtube8m-ml/2/frame/train/trainSJ.tfrecord"
        string_val: "gs://youtube8m-ml/2/frame/train/trainSK.tfrecord"
        string_val: "gs://youtube8m-ml/2/frame/train/trainSL.tfrecord"
        string_val: "gs://youtube8m-ml/2/frame/train/trainSM.tfrecord"
        string_val: "gs://youtube8m-ml/2/frame/train/trainSN.tfrecord"
        string_val: "gs://youtube8m-ml/2/frame/train/trainSO.tfrecord"
        string_val: "gs://youtube8m-ml/2/frame/train/trainSP.tfrecord"
        string_val: "gs://youtube8m-ml/2/frame/train/trainSQ.tfrecord"
        string_val: "gs://youtube8m-ml/2/frame/train/trainSR.tfrecord"
        string_val: "gs://youtube8m-ml/2/frame/train/trainSS.tfrecord"
        string_val: "gs://youtube8m-ml/2/frame/train/trainST.tfrecord"
        string_val: "gs://youtube8m-ml/2/frame/train/trainSU.tfrecord"
        string_val: "gs://youtube8m-ml/2/frame/train/trainSV.tfrecord"
        string_val: "gs://youtube8m-ml/2/frame/train/trainSW.tfrecord"
        string_val: "gs://youtube8m-ml/2/frame/train/trainSX.tfrecord"
        string_val: "gs://youtube8m-ml/2/frame/train/trainSY.tfrecord"
        string_val: "gs://youtube8m-ml/2/frame/train/trainSZ.tfrecord"
        string_val: "gs://youtube8m-ml/2/frame/train/trainSa.tfrecord"
        string_val: "gs://youtube8m-ml/2/frame/train/trainSb.tfrecord"
        string_val: "gs://youtube8m-ml/2/frame/train/trainSc.tfrecord"
        string_val: "gs://youtube8m-ml/2/frame/train/trainSd.tfrecord"
        string_val: "gs://youtube8m-ml/2/frame/train/trainSe.tfrecord"
        string_val: "gs://youtube8m-ml/2/frame/train/trainSf.tfrecord"
        string_val: "gs://youtube8m-ml/2/frame/train/trainSg.tfrecord"
        string_val: "gs://youtube8m-ml/2/frame/train/trainSh.tfrecord"
        string_val: "gs://youtube8m-ml/2/frame/train/trainSi.tfrecord"
        string_val: "gs://youtube8m-ml/2/frame/train/trainSj.tfrecord"
        string_val: "gs://youtube8m-ml/2/frame/train/trainSk.tfrecord"
        string_val: "gs://youtube8m-ml/2/frame/train/trainSl.tfrecord"
        string_val: "gs://youtube8m-ml/2/frame/train/trainSm.tfrecord"
        string_val: "gs://youtube8m-ml/2/frame/train/trainSn.tfrecord"
        string_val: "gs://youtube8m-ml/2/frame/train/trainSo.tfrecord"
        string_val: "gs://youtube8m-ml/2/frame/train/trainSp.tfrecord"
        string_val: "gs://youtube8m-ml/2/frame/train/trainSq.tfrecord"
        string_val: "gs://youtube8m-ml/2/frame/train/trainSr.tfrecord"
        string_val: "gs://youtube8m-ml/2/frame/train/trainSs.tfrecord"
        string_val: "gs://youtube8m-ml/2/frame/train/trainSt.tfrecord"
        string_val: "gs://youtube8m-ml/2/frame/train/trainSu.tfrecord"
        string_val: "gs://youtube8m-ml/2/frame/train/trainSv.tfrecord"
        string_val: "gs://youtube8m-ml/2/frame/train/trainSw.tfrecord"
        string_val: "gs://youtube8m-ml/2/frame/train/trainSx.tfrecord"
        string_val: "gs://youtube8m-ml/2/frame/train/trainSy.tfrecord"
        string_val: "gs://youtube8m-ml/2/frame/train/trainSz.tfrecord"
        string_val: "gs://youtube8m-ml/2/frame/train/trainT0.tfrecord"
        string_val: "gs://youtube8m-ml/2/frame/train/trainT1.tfrecord"
        string_val: "gs://youtube8m-ml/2/frame/train/trainT2.tfrecord"
        string_val: "gs://youtube8m-ml/2/frame/train/trainT3.tfrecord"
        string_val: "gs://youtube8m-ml/2/frame/train/trainT4.tfrecord"
        string_val: "gs://youtube8m-ml/2/frame/train/trainT5.tfrecord"
        string_val: "gs://youtube8m-ml/2/frame/train/trainT6.tfrecord"
        string_val: "gs://youtube8m-ml/2/frame/train/trainT7.tfrecord"
        string_val: "gs://youtube8m-ml/2/frame/train/trainT8.tfrecord"
        string_val: "gs://youtube8m-ml/2/frame/train/trainT9.tfrecord"
        string_val: "gs://youtube8m-ml/2/frame/train/trainTA.tfrecord"
        string_val: "gs://youtube8m-ml/2/frame/train/trainTB.tfrecord"
        string_val: "gs://youtube8m-ml/2/frame/train/trainTC.tfrecord"
        string_val: "gs://youtube8m-ml/2/frame/train/trainTD.tfrecord"
        string_val: "gs://youtube8m-ml/2/frame/train/trainTE.tfrecord"
        string_val: "gs://youtube8m-ml/2/frame/train/trainTF.tfrecord"
        string_val: "gs://youtube8m-ml/2/frame/train/trainTG.tfrecord"
        string_val: "gs://youtube8m-ml/2/frame/train/trainTH.tfrecord"
        string_val: "gs://youtube8m-ml/2/frame/train/trainTI.tfrecord"
        string_val: "gs://youtube8m-ml/2/frame/train/trainTJ.tfrecord"
        string_val: "gs://youtube8m-ml/2/frame/train/trainTK.tfrecord"
        string_val: "gs://youtube8m-ml/2/frame/train/trainTL.tfrecord"
        string_val: "gs://youtube8m-ml/2/frame/train/trainTM.tfrecord"
        string_val: "gs://youtube8m-ml/2/frame/train/trainTN.tfrecord"
        string_val: "gs://youtube8m-ml/2/frame/train/trainTO.tfrecord"
        string_val: "gs://youtube8m-ml/2/frame/train/trainTP.tfrecord"
        string_val: "gs://youtube8m-ml/2/frame/train/trainTQ.tfrecord"
        string_val: "gs://youtube8m-ml/2/frame/train/trainTR.tfrecord"
        string_val: "gs://youtube8m-ml/2/frame/train/trainTS.tfrecord"
        string_val: "gs://youtube8m-ml/2/frame/train/trainTT.tfrecord"
        string_val: "gs://youtube8m-ml/2/frame/train/trainTU.tfrecord"
        string_val: "gs://youtube8m-ml/2/frame/train/trainTV.tfrecord"
        string_val: "gs://youtube8m-ml/2/frame/train/trainTW.tfrecord"
        string_val: "gs://youtube8m-ml/2/frame/train/trainTX.tfrecord"
        string_val: "gs://youtube8m-ml/2/frame/train/trainTY.tfrecord"
        string_val: "gs://youtube8m-ml/2/frame/train/trainTZ.tfrecord"
        string_val: "gs://youtube8m-ml/2/frame/train/trainTa.tfrecord"
        string_val: "gs://youtube8m-ml/2/frame/train/trainTb.tfrecord"
        string_val: "gs://youtube8m-ml/2/frame/train/trainTc.tfrecord"
        string_val: "gs://youtube8m-ml/2/frame/train/trainTd.tfrecord"
        string_val: "gs://youtube8m-ml/2/frame/train/trainTe.tfrecord"
        string_val: "gs://youtube8m-ml/2/frame/train/trainTf.tfrecord"
        string_val: "gs://youtube8m-ml/2/frame/train/trainTg.tfrecord"
        string_val: "gs://youtube8m-ml/2/frame/train/trainTh.tfrecord"
        string_val: "gs://youtube8m-ml/2/frame/train/trainTi.tfrecord"
        string_val: "gs://youtube8m-ml/2/frame/train/trainTj.tfrecord"
        string_val: "gs://youtube8m-ml/2/frame/train/trainTk.tfrecord"
        string_val: "gs://youtube8m-ml/2/frame/train/trainTl.tfrecord"
        string_val: "gs://youtube8m-ml/2/frame/train/trainTm.tfrecord"
        string_val: "gs://youtube8m-ml/2/frame/train/trainTn.tfrecord"
        string_val: "gs://youtube8m-ml/2/frame/train/trainTo.tfrecord"
        string_val: "gs://youtube8m-ml/2/frame/train/trainTp.tfrecord"
        string_val: "gs://youtube8m-ml/2/frame/train/trainTq.tfrecord"
        string_val: "gs://youtube8m-ml/2/frame/train/trainTr.tfrecord"
        string_val: "gs://youtube8m-ml/2/frame/train/trainTs.tfrecord"
        string_val: "gs://youtube8m-ml/2/frame/train/trainTt.tfrecord"
        string_val: "gs://youtube8m-ml/2/frame/train/trainTu.tfrecord"
        string_val: "gs://youtube8m-ml/2/frame/train/trainTv.tfrecord"
        string_val: "gs://youtube8m-ml/2/frame/train/trainTw.tfrecord"
        string_val: "gs://youtube8m-ml/2/frame/train/trainTx.tfrecord"
        string_val: "gs://youtube8m-ml/2/frame/train/trainTy.tfrecord"
        string_val: "gs://youtube8m-ml/2/frame/train/trainTz.tfrecord"
        string_val: "gs://youtube8m-ml/2/frame/train/trainU0.tfrecord"
        string_val: "gs://youtube8m-ml/2/frame/train/trainU1.tfrecord"
        string_val: "gs://youtube8m-ml/2/frame/train/trainU2.tfrecord"
        string_val: "gs://youtube8m-ml/2/frame/train/trainU3.tfrecord"
        string_val: "gs://youtube8m-ml/2/frame/train/trainU4.tfrecord"
        string_val: "gs://youtube8m-ml/2/frame/train/trainU5.tfrecord"
        string_val: "gs://youtube8m-ml/2/frame/train/trainU6.tfrecord"
        string_val: "gs://youtube8m-ml/2/frame/train/trainU7.tfrecord"
        string_val: "gs://youtube8m-ml/2/frame/train/trainU8.tfrecord"
        string_val: "gs://youtube8m-ml/2/frame/train/trainU9.tfrecord"
        string_val: "gs://youtube8m-ml/2/frame/train/trainUA.tfrecord"
        string_val: "gs://youtube8m-ml/2/frame/train/trainUB.tfrecord"
        string_val: "gs://youtube8m-ml/2/frame/train/trainUC.tfrecord"
        string_val: "gs://youtube8m-ml/2/frame/train/trainUD.tfrecord"
        string_val: "gs://youtube8m-ml/2/frame/train/trainUE.tfrecord"
        string_val: "gs://youtube8m-ml/2/frame/train/trainUF.tfrecord"
        string_val: "gs://youtube8m-ml/2/frame/train/trainUG.tfrecord"
        string_val: "gs://youtube8m-ml/2/frame/train/trainUH.tfrecord"
        string_val: "gs://youtube8m-ml/2/frame/train/trainUI.tfrecord"
        string_val: "gs://youtube8m-ml/2/frame/train/trainUJ.tfrecord"
        string_val: "gs://youtube8m-ml/2/frame/train/trainUK.tfrecord"
        string_val: "gs://youtube8m-ml/2/frame/train/trainUL.tfrecord"
        string_val: "gs://youtube8m-ml/2/frame/train/trainUM.tfrecord"
        string_val: "gs://youtube8m-ml/2/frame/train/trainUN.tfrecord"
        string_val: "gs://youtube8m-ml/2/frame/train/trainUO.tfrecord"
        string_val: "gs://youtube8m-ml/2/frame/train/trainUP.tfrecord"
        string_val: "gs://youtube8m-ml/2/frame/train/trainUQ.tfrecord"
        string_val: "gs://youtube8m-ml/2/frame/train/trainUR.tfrecord"
        string_val: "gs://youtube8m-ml/2/frame/train/trainUS.tfrecord"
        string_val: "gs://youtube8m-ml/2/frame/train/trainUT.tfrecord"
        string_val: "gs://youtube8m-ml/2/frame/train/trainUU.tfrecord"
        string_val: "gs://youtube8m-ml/2/frame/train/trainUV.tfrecord"
        string_val: "gs://youtube8m-ml/2/frame/train/trainUW.tfrecord"
        string_val: "gs://youtube8m-ml/2/frame/train/trainUX.tfrecord"
        string_val: "gs://youtube8m-ml/2/frame/train/trainUY.tfrecord"
        string_val: "gs://youtube8m-ml/2/frame/train/trainUZ.tfrecord"
        string_val: "gs://youtube8m-ml/2/frame/train/trainUa.tfrecord"
        string_val: "gs://youtube8m-ml/2/frame/train/trainUb.tfrecord"
        string_val: "gs://youtube8m-ml/2/frame/train/trainUc.tfrecord"
        string_val: "gs://youtube8m-ml/2/frame/train/trainUd.tfrecord"
        string_val: "gs://youtube8m-ml/2/frame/train/trainUe.tfrecord"
        string_val: "gs://youtube8m-ml/2/frame/train/trainUf.tfrecord"
        string_val: "gs://youtube8m-ml/2/frame/train/trainUg.tfrecord"
        string_val: "gs://youtube8m-ml/2/frame/train/trainUh.tfrecord"
        string_val: "gs://youtube8m-ml/2/frame/train/trainUi.tfrecord"
        string_val: "gs://youtube8m-ml/2/frame/train/trainUj.tfrecord"
        string_val: "gs://youtube8m-ml/2/frame/train/trainUk.tfrecord"
        string_val: "gs://youtube8m-ml/2/frame/train/trainUl.tfrecord"
        string_val: "gs://youtube8m-ml/2/frame/train/trainUm.tfrecord"
        string_val: "gs://youtube8m-ml/2/frame/train/trainUn.tfrecord"
        string_val: "gs://youtube8m-ml/2/frame/train/trainUo.tfrecord"
        string_val: "gs://youtube8m-ml/2/frame/train/trainUp.tfrecord"
        string_val: "gs://youtube8m-ml/2/frame/train/trainUq.tfrecord"
        string_val: "gs://youtube8m-ml/2/frame/train/trainUr.tfrecord"
        string_val: "gs://youtube8m-ml/2/frame/train/trainUs.tfrecord"
        string_val: "gs://youtube8m-ml/2/frame/train/trainUt.tfrecord"
        string_val: "gs://youtube8m-ml/2/frame/train/trainUu.tfrecord"
        string_val: "gs://youtube8m-ml/2/frame/train/trainUv.tfrecord"
        string_val: "gs://youtube8m-ml/2/frame/train/trainUw.tfrecord"
        string_val: "gs://youtube8m-ml/2/frame/train/trainUx.tfrecord"
        string_val: "gs://youtube8m-ml/2/frame/train/trainUy.tfrecord"
        string_val: "gs://youtube8m-ml/2/frame/train/trainUz.tfrecord"
        string_val: "gs://youtube8m-ml/2/frame/train/trainV0.tfrecord"
        string_val: "gs://youtube8m-ml/2/frame/train/trainV1.tfrecord"
        string_val: "gs://youtube8m-ml/2/frame/train/trainV2.tfrecord"
        string_val: "gs://youtube8m-ml/2/frame/train/trainV3.tfrecord"
        string_val: "gs://youtube8m-ml/2/frame/train/trainV4.tfrecord"
        string_val: "gs://youtube8m-ml/2/frame/train/trainV5.tfrecord"
        string_val: "gs://youtube8m-ml/2/frame/train/trainV6.tfrecord"
        string_val: "gs://youtube8m-ml/2/frame/train/trainV7.tfrecord"
        string_val: "gs://youtube8m-ml/2/frame/train/trainV8.tfrecord"
        string_val: "gs://youtube8m-ml/2/frame/train/trainV9.tfrecord"
        string_val: "gs://youtube8m-ml/2/frame/train/trainVA.tfrecord"
        string_val: "gs://youtube8m-ml/2/frame/train/trainVB.tfrecord"
        string_val: "gs://youtube8m-ml/2/frame/train/trainVC.tfrecord"
        string_val: "gs://youtube8m-ml/2/frame/train/trainVD.tfrecord"
        string_val: "gs://youtube8m-ml/2/frame/train/trainVE.tfrecord"
        string_val: "gs://youtube8m-ml/2/frame/train/trainVF.tfrecord"
        string_val: "gs://youtube8m-ml/2/frame/train/trainVG.tfrecord"
        string_val: "gs://youtube8m-ml/2/frame/train/trainVH.tfrecord"
        string_val: "gs://youtube8m-ml/2/frame/train/trainVI.tfrecord"
        string_val: "gs://youtube8m-ml/2/frame/train/trainVJ.tfrecord"
        string_val: "gs://youtube8m-ml/2/frame/train/trainVK.tfrecord"
        string_val: "gs://youtube8m-ml/2/frame/train/trainVL.tfrecord"
        string_val: "gs://youtube8m-ml/2/frame/train/trainVM.tfrecord"
        string_val: "gs://youtube8m-ml/2/frame/train/trainVN.tfrecord"
        string_val: "gs://youtube8m-ml/2/frame/train/trainVO.tfrecord"
        string_val: "gs://youtube8m-ml/2/frame/train/trainVP.tfrecord"
        string_val: "gs://youtube8m-ml/2/frame/train/trainVQ.tfrecord"
        string_val: "gs://youtube8m-ml/2/frame/train/trainVR.tfrecord"
        string_val: "gs://youtube8m-ml/2/frame/train/trainVS.tfrecord"
        string_val: "gs://youtube8m-ml/2/frame/train/trainVT.tfrecord"
        string_val: "gs://youtube8m-ml/2/frame/train/trainVU.tfrecord"
        string_val: "gs://youtube8m-ml/2/frame/train/trainVV.tfrecord"
        string_val: "gs://youtube8m-ml/2/frame/train/trainVW.tfrecord"
        string_val: "gs://youtube8m-ml/2/frame/train/trainVX.tfrecord"
        string_val: "gs://youtube8m-ml/2/frame/train/trainVY.tfrecord"
        string_val: "gs://youtube8m-ml/2/frame/train/trainVZ.tfrecord"
        string_val: "gs://youtube8m-ml/2/frame/train/trainVa.tfrecord"
        string_val: "gs://youtube8m-ml/2/frame/train/trainVb.tfrecord"
        string_val: "gs://youtube8m-ml/2/frame/train/trainVc.tfrecord"
        string_val: "gs://youtube8m-ml/2/frame/train/trainVd.tfrecord"
        string_val: "gs://youtube8m-ml/2/frame/train/trainVe.tfrecord"
        string_val: "gs://youtube8m-ml/2/frame/train/trainVf.tfrecord"
        string_val: "gs://youtube8m-ml/2/frame/train/trainVg.tfrecord"
        string_val: "gs://youtube8m-ml/2/frame/train/trainVh.tfrecord"
        string_val: "gs://youtube8m-ml/2/frame/train/trainVi.tfrecord"
        string_val: "gs://youtube8m-ml/2/frame/train/trainVj.tfrecord"
        string_val: "gs://youtube8m-ml/2/frame/train/trainVk.tfrecord"
        string_val: "gs://youtube8m-ml/2/frame/train/trainVl.tfrecord"
        string_val: "gs://youtube8m-ml/2/frame/train/trainVm.tfrecord"
        string_val: "gs://youtube8m-ml/2/frame/train/trainVn.tfrecord"
        string_val: "gs://youtube8m-ml/2/frame/train/trainVo.tfrecord"
        string_val: "gs://youtube8m-ml/2/frame/train/trainVp.tfrecord"
        string_val: "gs://youtube8m-ml/2/frame/train/trainVq.tfrecord"
        string_val: "gs://youtube8m-ml/2/frame/train/trainVr.tfrecord"
        string_val: "gs://youtube8m-ml/2/frame/train/trainVs.tfrecord"
        string_val: "gs://youtube8m-ml/2/frame/train/trainVt.tfrecord"
        string_val: "gs://youtube8m-ml/2/frame/train/trainVu.tfrecord"
        string_val: "gs://youtube8m-ml/2/frame/train/trainVv.tfrecord"
        string_val: "gs://youtube8m-ml/2/frame/train/trainVw.tfrecord"
        string_val: "gs://youtube8m-ml/2/frame/train/trainVx.tfrecord"
        string_val: "gs://youtube8m-ml/2/frame/train/trainVy.tfrecord"
        string_val: "gs://youtube8m-ml/2/frame/train/trainVz.tfrecord"
        string_val: "gs://youtube8m-ml/2/frame/train/trainW0.tfrecord"
        string_val: "gs://youtube8m-ml/2/frame/train/trainW1.tfrecord"
        string_val: "gs://youtube8m-ml/2/frame/train/trainW2.tfrecord"
        string_val: "gs://youtube8m-ml/2/frame/train/trainW3.tfrecord"
        string_val: "gs://youtube8m-ml/2/frame/train/trainW4.tfrecord"
        string_val: "gs://youtube8m-ml/2/frame/train/trainW5.tfrecord"
        string_val: "gs://youtube8m-ml/2/frame/train/trainW6.tfrecord"
        string_val: "gs://youtube8m-ml/2/frame/train/trainW7.tfrecord"
        string_val: "gs://youtube8m-ml/2/frame/train/trainW8.tfrecord"
        string_val: "gs://youtube8m-ml/2/frame/train/trainW9.tfrecord"
        string_val: "gs://youtube8m-ml/2/frame/train/trainWA.tfrecord"
        string_val: "gs://youtube8m-ml/2/frame/train/trainWB.tfrecord"
        string_val: "gs://youtube8m-ml/2/frame/train/trainWC.tfrecord"
        string_val: "gs://youtube8m-ml/2/frame/train/trainWD.tfrecord"
        string_val: "gs://youtube8m-ml/2/frame/train/trainWE.tfrecord"
        string_val: "gs://youtube8m-ml/2/frame/train/trainWF.tfrecord"
        string_val: "gs://youtube8m-ml/2/frame/train/trainWG.tfrecord"
        string_val: "gs://youtube8m-ml/2/frame/train/trainWH.tfrecord"
        string_val: "gs://youtube8m-ml/2/frame/train/trainWI.tfrecord"
        string_val: "gs://youtube8m-ml/2/frame/train/trainWJ.tfrecord"
        string_val: "gs://youtube8m-ml/2/frame/train/trainWK.tfrecord"
        string_val: "gs://youtube8m-ml/2/frame/train/trainWL.tfrecord"
        string_val: "gs://youtube8m-ml/2/frame/train/trainWM.tfrecord"
        string_val: "gs://youtube8m-ml/2/frame/train/trainWN.tfrecord"
        string_val: "gs://youtube8m-ml/2/frame/train/trainWO.tfrecord"
        string_val: "gs://youtube8m-ml/2/frame/train/trainWP.tfrecord"
        string_val: "gs://youtube8m-ml/2/frame/train/trainWQ.tfrecord"
        string_val: "gs://youtube8m-ml/2/frame/train/trainWR.tfrecord"
        string_val: "gs://youtube8m-ml/2/frame/train/trainWS.tfrecord"
        string_val: "gs://youtube8m-ml/2/frame/train/trainWT.tfrecord"
        string_val: "gs://youtube8m-ml/2/frame/train/trainWU.tfrecord"
        string_val: "gs://youtube8m-ml/2/frame/train/trainWV.tfrecord"
        string_val: "gs://youtube8m-ml/2/frame/train/trainWW.tfrecord"
…
            size: 3862
          }
        }
      }
    }
  }
  attr {
    key: "index_type"
    value {
      type: DT_INT32
    }
  }
}
node {
  name: "tower/fully_connected/biases/Adam"
  op: "VariableV2"
  device: "/device:CPU:0"
  attr {
    key: "_class"
    value {
      list {
        s: "loc:@tower/fully_connected/biases"
      }
    }
  }
  attr {
    key: "_output_shapes"
    value {
      list {
        shape {
          dim {
            size: 3862
          }
        }
      }
    }
  }
  attr {
    key: "container"
    value {
      s: ""
    }
  }
  attr {
    key: "dtype"
    value {
      type: DT_FLOAT
    }
  }
  attr {
    key: "shape"
    value {
      shape {
        dim {
          size: 3862
        }
      }
    }
  }
  attr {
    key: "shared_name"
    value {
      s: ""
    }
  }
}
node {
  name: "tower/fully_connected/biases/Adam/Assign"
  op: "Assign"
  input: "tower/fully_connected/biases/Adam"
  input: "tower/fully_connected/biases/Adam/Initializer/zeros"
  device: "/device:CPU:0"
  attr {
    key: "T"
    value {
      type: DT_FLOAT
    }
  }
  attr {
    key: "_class"
    value {
      list {
        s: "loc:@tower/fully_connected/biases"
      }
    }
  }
  attr {
    key: "_output_shapes"
    value {
      list {
        shape {
          dim {
            size: 3862
          }
        }
      }
    }
  }
  attr {
    key: "use_locking"
    value {
      b: true
    }
  }
  attr {
    key: "validate_shape"
    value {
      b: true
    }
  }
}
node {
  name: "tower/fully_connected/biases/Adam/read"
  op: "Identity"
  input: "tower/fully_connected/biases/Adam"
  device: "/device:CPU:0"
  attr {
    key: "T"
    value {
      type: DT_FLOAT
    }
  }
  attr {
    key: "_class"
    value {
      list {
        s: "loc:@tower/fully_connected/biases"
      }
    }
  }
  attr {
    key: "_output_shapes"
    value {
      list {
        shape {
          dim {
            size: 3862
          }
        }
      }
    }
  }
}
node {
  name: "tower/fully_connected/biases/Adam_1/Initializer/zeros/shape_as_tensor"
  op: "Const"
  device: "/device:CPU:0"
  attr {
    key: "_class"
    value {
      list {
        s: "loc:@tower/fully_connected/biases"
      }
    }
  }
  attr {
    key: "_output_shapes"
    value {
      list {
        shape {
          dim {
            size: 1
          }
        }
      }
    }
  }
  attr {
    key: "dtype"
    value {
      type: DT_INT32
    }
  }
  attr {
    key: "value"
    value {
      tensor {
        dtype: DT_INT32
        tensor_shape {
          dim {
            size: 1
          }
        }
        int_val: 3862
      }
    }
  }
}
node {
  name: "tower/fully_connected/biases/Adam_1/Initializer/zeros/Const"
  op: "Const"
  device: "/device:CPU:0"
  attr {
    key: "_class"
    value {
      list {
        s: "loc:@tower/fully_connected/biases"
      }
    }
  }
  attr {
    key: "_output_shapes"
    value {
      list {
        shape {
        }
      }
    }
  }
  attr {
    key: "dtype"
    value {
      type: DT_FLOAT
    }
  }
  attr {
    key: "value"
    value {
      tensor {
        dtype: DT_FLOAT
        tensor_shape {
        }
        float_val: 0.0
      }
    }
  }
}
node {
  name: "tower/fully_connected/biases/Adam_1/Initializer/zeros"
  op: "Fill"
  input: "tower/fully_connected/biases/Adam_1/Initializer/zeros/shape_as_tensor"
  input: "tower/fully_connected/biases/Adam_1/Initializer/zeros/Const"
  device: "/device:CPU:0"
  attr {
    key: "T"
    value {
      type: DT_FLOAT
    }
  }
  attr {
    key: "_class"
    value {
      list {
        s: "loc:@tower/fully_connected/biases"
      }
    }
  }
  attr {
    key: "_output_shapes"
    value {
      list {
        shape {
          dim {
            size: 3862
          }
        }
      }
    }
  }
  attr {
    key: "index_type"
    value {
      type: DT_INT32
    }
  }
}
node {
  name: "tower/fully_connected/biases/Adam_1"
  op: "VariableV2"
  device: "/device:CPU:0"
  attr {
    key: "_class"
    value {
      list {
        s: "loc:@tower/fully_connected/biases"
      }
    }
  }
  attr {
    key: "_output_shapes"
    value {
      list {
        shape {
          dim {
            size: 3862
          }
        }
      }
    }
  }
  attr {
    key: "container"
    value {
      s: ""
    }
  }
  attr {
    key: "dtype"
    value {
      type: DT_FLOAT
    }
  }
  attr {
    key: "shape"
    value {
      shape {
        dim {
          size: 3862
        }
      }
    }
  }
  attr {
    key: "shared_name"
    value {
      s: ""
    }
  }
}
node {
  name: "tower/fully_connected/biases/Adam_1/Assign"
  op: "Assign"
  input: "tower/fully_connected/biases/Adam_1"
  input: "tower/fully_connected/biases/Adam_1/Initializer/zeros"
  device: "/device:CPU:0"
  attr {
    key: "T"
    value {
      type: DT_FLOAT
    }
  }
  attr {
    key: "_class"
    value {
      list {
        s: "loc:@tower/fully_connected/biases"
      }
    }
  }
  attr {
    key: "_output_shapes"
    value {
      list {
        shape {
          dim {
            size: 3862
          }
        }
      }
    }
  }
  attr {
    key: "use_locking"
    value {
      b: true
    }
  }
  attr {
    key: "validate_shape"
    value {
      b: true
    }
  }
}
node {
  name: "tower/fully_connected/biases/Adam_1/read"
  op: "Identity"
  input: "tower/fully_connected/biases/Adam_1"
  device: "/device:CPU:0"
  attr {
    key: "T"
    value {
      type: DT_FLOAT
    }
  }
  attr {
    key: "_class"
    value {
      list {
        s: "loc:@tower/fully_connected/biases"
      }
    }
  }
  attr {
    key: "_output_shapes"
    value {
      list {
        shape {
          dim {
            size: 3862
          }
        }
      }
    }
  }
}
node {
  name: "Adam/beta1"
  op: "Const"
  attr {
    key: "_output_shapes"
    value {
      list {
        shape {
        }
      }
    }
  }
  attr {
    key: "dtype"
    value {
      type: DT_FLOAT
    }
  }
  attr {
    key: "value"
    value {
      tensor {
        dtype: DT_FLOAT
        tensor_shape {
        }
        float_val: 0.8999999761581421
      }
    }
  }
}
node {
  name: "Adam/beta2"
  op: "Const"
  attr {
    key: "_output_shapes"
    value {
      list {
        shape {
        }
      }
    }
  }
  attr {
    key: "dtype"
    value {
      type: DT_FLOAT
    }
  }
  attr {
    key: "value"
    value {
      tensor {
        dtype: DT_FLOAT
        tensor_shape {
        }
        float_val: 0.9990000128746033
      }
    }
  }
}
node {
  name: "Adam/epsilon"
  op: "Const"
  attr {
    key: "_output_shapes"
    value {
      list {
        shape {
        }
      }
    }
  }
  attr {
    key: "dtype"
    value {
      type: DT_FLOAT
    }
  }
  attr {
    key: "value"
    value {
      tensor {
        dtype: DT_FLOAT
        tensor_shape {
        }
        float_val: 9.99999993922529e-09
      }
    }
  }
}
node {
  name: "Adam/update_tower/fully_connected/weights/ApplyAdam"
  op: "ApplyAdam"
  input: "tower/fully_connected/weights"
  input: "tower/fully_connected/weights/Adam"
  input: "tower/fully_connected/weights/Adam_1"
  input: "beta1_power/read"
  input: "beta2_power/read"
  input: "ExponentialDecay"
  input: "Adam/beta1"
  input: "Adam/beta2"
  input: "Adam/epsilon"
  input: "clip_grads/clip_by_norm"
  device: "/device:CPU:0"
  attr {
    key: "T"
    value {
      type: DT_FLOAT
    }
  }
  attr {
    key: "_class"
    value {
      list {
        s: "loc:@tower/fully_connected/weights"
      }
    }
  }
  attr {
    key: "_output_shapes"
    value {
      list {
        shape {
          dim {
            size: 1152
          }
          dim {
            size: 3862
          }
        }
      }
    }
  }
  attr {
    key: "use_locking"
    value {
      b: false
    }
  }
  attr {
    key: "use_nesterov"
    value {
      b: false
    }
  }
}
node {
  name: "Adam/update_tower/fully_connected/biases/ApplyAdam"
  op: "ApplyAdam"
  input: "tower/fully_connected/biases"
  input: "tower/fully_connected/biases/Adam"
  input: "tower/fully_connected/biases/Adam_1"
  input: "beta1_power/read"
  input: "beta2_power/read"
  input: "ExponentialDecay"
  input: "Adam/beta1"
  input: "Adam/beta2"
  input: "Adam/epsilon"
  input: "clip_grads/clip_by_norm_1"
  device: "/device:CPU:0"
  attr {
    key: "T"
    value {
      type: DT_FLOAT
    }
  }
  attr {
    key: "_class"
    value {
      list {
        s: "loc:@tower/fully_connected/biases"
      }
    }
  }
  attr {
    key: "_output_shapes"
    value {
      list {
        shape {
          dim {
            size: 3862
          }
        }
      }
    }
  }
  attr {
    key: "use_locking"
    value {
      b: false
    }
  }
  attr {
    key: "use_nesterov"
    value {
      b: false
    }
  }
}
node {
  name: "Adam/mul"
  op: "Mul"
  input: "beta1_power/read"
  input: "Adam/beta1"
  input: "^Adam/update_tower/fully_connected/biases/ApplyAdam"
  input: "^Adam/update_tower/fully_connected/weights/ApplyAdam"
  device: "/device:CPU:0"
  attr {
    key: "T"
    value {
      type: DT_FLOAT
    }
  }
  attr {
    key: "_class"
    value {
      list {
        s: "loc:@tower/fully_connected/biases"
      }
    }
  }
  attr {
    key: "_output_shapes"
    value {
      list {
        shape {
        }
      }
    }
  }
}
node {
  name: "Adam/Assign"
  op: "Assign"
  input: "beta1_power"
  input: "Adam/mul"
  device: "/device:CPU:0"
  attr {
    key: "T"
    value {
      type: DT_FLOAT
    }
  }
  attr {
    key: "_class"
    value {
      list {
        s: "loc:@tower/fully_connected/biases"
      }
    }
  }
  attr {
    key: "_output_shapes"
    value {
      list {
        shape {
        }
      }
    }
  }
  attr {
    key: "use_locking"
    value {
      b: false
    }
  }
  attr {
    key: "validate_shape"
    value {
      b: true
    }
  }
}
node {
  name: "Adam/mul_1"
  op: "Mul"
  input: "beta2_power/read"
  input: "Adam/beta2"
  input: "^Adam/update_tower/fully_connected/biases/ApplyAdam"
  input: "^Adam/update_tower/fully_connected/weights/ApplyAdam"
  device: "/device:CPU:0"
  attr {
    key: "T"
    value {
      type: DT_FLOAT
    }
  }
  attr {
    key: "_class"
    value {
      list {
        s: "loc:@tower/fully_connected/biases"
      }
    }
  }
  attr {
    key: "_output_shapes"
    value {
      list {
        shape {
        }
      }
    }
  }
}
node {
  name: "Adam/Assign_1"
  op: "Assign"
  input: "beta2_power"
  input: "Adam/mul_1"
  device: "/device:CPU:0"
  attr {
    key: "T"
    value {
      type: DT_FLOAT
    }
  }
  attr {
    key: "_class"
    value {
      list {
        s: "loc:@tower/fully_connected/biases"
      }
    }
  }
  attr {
    key: "_output_shapes"
    value {
      list {
        shape {
        }
      }
    }
  }
  attr {
    key: "use_locking"
    value {
      b: false
    }
  }
  attr {
    key: "validate_shape"
    value {
      b: true
    }
  }
}
node {
  name: "Adam/update"
  op: "NoOp"
  input: "^Adam/Assign"
  input: "^Adam/Assign_1"
  input: "^Adam/update_tower/fully_connected/biases/ApplyAdam"
  input: "^Adam/update_tower/fully_connected/weights/ApplyAdam"
  device: "/device:CPU:0"
}
node {
  name: "Adam/value"
  op: "Const"
  input: "^Adam/update"
  attr {
    key: "_class"
    value {
      list {
        s: "loc:@global_step"
      }
    }
  }
  attr {
    key: "_output_shapes"
    value {
      list {
        shape {
        }
      }
    }
  }
  attr {
    key: "dtype"
    value {
      type: DT_INT32
    }
  }
  attr {
    key: "value"
    value {
      tensor {
        dtype: DT_INT32
        tensor_shape {
        }
        int_val: 1
      }
    }
  }
}
node {
  name: "Adam"
  op: "AssignAdd"
  input: "global_step"
  input: "Adam/value"
  attr {
    key: "T"
    value {
      type: DT_INT32
    }
  }
  attr {
    key: "_class"
    value {
      list {
        s: "loc:@global_step"
      }
    }
  }
  attr {
    key: "_output_shapes"
    value {
      list {
        shape {
        }
      }
    }
  }
  attr {
    key: "use_locking"
    value {
      b: false
    }
  }
}
node {
  name: "concat/concat_dim"
  op: "Const"
  attr {
    key: "_output_shapes"
    value {
      list {
        shape {
        }
      }
    }
  }
  attr {
    key: "dtype"
    value {
      type: DT_INT32
    }
  }
  attr {
    key: "value"
    value {
      tensor {
        dtype: DT_INT32
        tensor_shape {
        }
        int_val: 0
      }
    }
  }
}
node {
  name: "concat/concat"
  op: "Identity"
  input: "tower/fully_connected/Sigmoid"
  attr {
    key: "T"
    value {
      type: DT_FLOAT
    }
  }
  attr {
    key: "_output_shapes"
    value {
      list {
        shape {
          dim {
            size: -1
          }
          dim {
            size: 3862
          }
        }
      }
    }
  }
}
node {
  name: "Cast"
  op: "Cast"
  input: "train_input/shuffle_batch_join"
  attr {
    key: "DstT"
    value {
      type: DT_FLOAT
    }
  }
  attr {
    key: "SrcT"
    value {
      type: DT_BOOL
    }
  }
  attr {
    key: "Truncate"
    value {
      b: false
    }
  }
  attr {
    key: "_output_shapes"
    value {
      list {
        shape {
          dim {
            size: -1
          }
          dim {
            size: 3862
          }
        }
      }
    }
  }
}
node {
  name: "save/filename/input"
  op: "Const"
  attr {
    key: "_output_shapes"
    value {
      list {
        shape {
        }
      }
    }
  }
  attr {
    key: "dtype"
    value {
      type: DT_STRING
    }
  }
  attr {
    key: "value"
    value {
      tensor {
        dtype: DT_STRING
        tensor_shape {
        }
        string_val: "model"
      }
    }
  }
}
node {
  name: "save/filename"
  op: "PlaceholderWithDefault"
  input: "save/filename/input"
  attr {
    key: "_output_shapes"
    value {
      list {
        shape {
        }
      }
    }
  }
  attr {
    key: "dtype"
    value {
      type: DT_STRING
    }
  }
  attr {
    key: "shape"
    value {
      shape {
      }
    }
  }
}
node {
  name: "save/Const"
  op: "PlaceholderWithDefault"
  input: "save/filename"
  attr {
    key: "_output_shapes"
    value {
      list {
        shape {
        }
      }
    }
  }
  attr {
    key: "dtype"
    value {
      type: DT_STRING
    }
  }
  attr {
    key: "shape"
    value {
      shape {
      }
    }
  }
}
node {
  name: "save/SaveV2/tensor_names"
  op: "Const"
  attr {
    key: "_output_shapes"
    value {
      list {
        shape {
          dim {
            size: 9
          }
        }
      }
    }
  }
  attr {
    key: "dtype"
    value {
      type: DT_STRING
    }
  }
  attr {
    key: "value"
    value {
      tensor {
        dtype: DT_STRING
        tensor_shape {
          dim {
            size: 9
          }
        }
        string_val: "beta1_power"
        string_val: "beta2_power"
        string_val: "global_step"
        string_val: "tower/fully_connected/biases"
        string_val: "tower/fully_connected/biases/Adam"
        string_val: "tower/fully_connected/biases/Adam_1"
        string_val: "tower/fully_connected/weights"
        string_val: "tower/fully_connected/weights/Adam"
        string_val: "tower/fully_connected/weights/Adam_1"
      }
    }
  }
}
node {
  name: "save/SaveV2/shape_and_slices"
  op: "Const"
  attr {
    key: "_output_shapes"
    value {
      list {
        shape {
          dim {
            size: 9
          }
        }
      }
    }
  }
  attr {
    key: "dtype"
    value {
      type: DT_STRING
    }
  }
  attr {
    key: "value"
    value {
      tensor {
        dtype: DT_STRING
        tensor_shape {
          dim {
            size: 9
          }
        }
        string_val: ""
        string_val: ""
        string_val: ""
        string_val: ""
        string_val: ""
        string_val: ""
        string_val: ""
        string_val: ""
        string_val: ""
      }
    }
  }
}
node {
  name: "save/SaveV2"
  op: "SaveV2"
  input: "save/Const"
  input: "save/SaveV2/tensor_names"
  input: "save/SaveV2/shape_and_slices"
  input: "beta1_power"
  input: "beta2_power"
  input: "global_step"
  input: "tower/fully_connected/biases"
  input: "tower/fully_connected/biases/Adam"
  input: "tower/fully_connected/biases/Adam_1"
  input: "tower/fully_connected/weights"
  input: "tower/fully_connected/weights/Adam"
  input: "tower/fully_connected/weights/Adam_1"
  attr {
    key: "dtypes"
    value {
      list {
        type: DT_FLOAT
        type: DT_FLOAT
        type: DT_INT32
        type: DT_FLOAT
        type: DT_FLOAT
        type: DT_FLOAT
        type: DT_FLOAT
        type: DT_FLOAT
        type: DT_FLOAT
      }
    }
  }
}
node {
  name: "save/control_dependency"
  op: "Identity"
  input: "save/Const"
  input: "^save/SaveV2"
  attr {
    key: "T"
    value {
      type: DT_STRING
    }
  }
  attr {
    key: "_class"
    value {
      list {
        s: "loc:@save/Const"
      }
    }
  }
  attr {
    key: "_output_shapes"
    value {
      list {
        shape {
        }
      }
    }
  }
}
node {
  name: "save/RestoreV2/tensor_names"
  op: "Const"
  device: "/device:CPU:0"
  attr {
    key: "_output_shapes"
    value {
      list {
        shape {
          dim {
            size: 9
          }
        }
      }
    }
  }
  attr {
    key: "dtype"
    value {
      type: DT_STRING
    }
  }
  attr {
    key: "value"
    value {
      tensor {
        dtype: DT_STRING
        tensor_shape {
          dim {
            size: 9
          }
        }
        string_val: "beta1_power"
        string_val: "beta2_power"
        string_val: "global_step"
        string_val: "tower/fully_connected/biases"
        string_val: "tower/fully_connected/biases/Adam"
        string_val: "tower/fully_connected/biases/Adam_1"
        string_val: "tower/fully_connected/weights"
        string_val: "tower/fully_connected/weights/Adam"
        string_val: "tower/fully_connected/weights/Adam_1"
      }
    }
  }
}
node {
  name: "save/RestoreV2/shape_and_slices"
  op: "Const"
  device: "/device:CPU:0"
  attr {
    key: "_output_shapes"
    value {
      list {
        shape {
          dim {
            size: 9
          }
        }
      }
    }
  }
  attr {
    key: "dtype"
    value {
      type: DT_STRING
    }
  }
  attr {
    key: "value"
    value {
      tensor {
        dtype: DT_STRING
        tensor_shape {
          dim {
            size: 9
          }
        }
        string_val: ""
        string_val: ""
        string_val: ""
        string_val: ""
        string_val: ""
        string_val: ""
        string_val: ""
        string_val: ""
        string_val: ""
      }
    }
  }
}
node {
  name: "save/RestoreV2"
  op: "RestoreV2"
  input: "save/Const"
  input: "save/RestoreV2/tensor_names"
  input: "save/RestoreV2/shape_and_slices"
  device: "/device:CPU:0"
  attr {
    key: "_output_shapes"
    value {
      list {
        shape {
          unknown_rank: true
        }
        shape {
          unknown_rank: true
        }
        shape {
          unknown_rank: true
        }
        shape {
          unknown_rank: true
        }
        shape {
          unknown_rank: true
        }
        shape {
          unknown_rank: true
        }
        shape {
          unknown_rank: true
        }
        shape {
          unknown_rank: true
        }
        shape {
          unknown_rank: true
        }
      }
    }
  }
  attr {
    key: "dtypes"
    value {
      list {
        type: DT_FLOAT
        type: DT_FLOAT
        type: DT_INT32
        type: DT_FLOAT
        type: DT_FLOAT
        type: DT_FLOAT
        type: DT_FLOAT
        type: DT_FLOAT
        type: DT_FLOAT
      }
    }
  }
}
node {
  name: "save/Assign"
  op: "Assign"
  input: "beta1_power"
  input: "save/RestoreV2"
  device: "/device:CPU:0"
  attr {
    key: "T"
    value {
      type: DT_FLOAT
    }
  }
  attr {
    key: "_class"
    value {
      list {
        s: "loc:@tower/fully_connected/biases"
      }
    }
  }
  attr {
    key: "_output_shapes"
    value {
      list {
        shape {
        }
      }
    }
  }
  attr {
    key: "use_locking"
    value {
      b: true
    }
  }
  attr {
    key: "validate_shape"
    value {
      b: true
    }
  }
}
node {
  name: "save/Assign_1"
  op: "Assign"
  input: "beta2_power"
  input: "save/RestoreV2:1"
  device: "/device:CPU:0"
  attr {
    key: "T"
    value {
      type: DT_FLOAT
    }
  }
  attr {
    key: "_class"
    value {
      list {
        s: "loc:@tower/fully_connected/biases"
      }
    }
  }
  attr {
    key: "_output_shapes"
    value {
      list {
        shape {
        }
      }
    }
  }
  attr {
    key: "use_locking"
    value {
      b: true
    }
  }
  attr {
    key: "validate_shape"
    value {
      b: true
    }
  }
}
node {
  name: "save/Assign_2"
  op: "Assign"
  input: "global_step"
  input: "save/RestoreV2:2"
  attr {
    key: "T"
    value {
      type: DT_INT32
    }
  }
  attr {
    key: "_class"
    value {
      list {
        s: "loc:@global_step"
      }
    }
  }
  attr {
    key: "_output_shapes"
    value {
      list {
        shape {
        }
      }
    }
  }
  attr {
    key: "use_locking"
    value {
      b: true
    }
  }
  attr {
    key: "validate_shape"
    value {
      b: true
    }
  }
}
node {
  name: "save/Assign_3"
  op: "Assign"
  input: "tower/fully_connected/biases"
  input: "save/RestoreV2:3"
  device: "/device:CPU:0"
  attr {
    key: "T"
    value {
      type: DT_FLOAT
    }
  }
  attr {
    key: "_class"
    value {
      list {
        s: "loc:@tower/fully_connected/biases"
      }
    }
  }
  attr {
    key: "_output_shapes"
    value {
      list {
        shape {
          dim {
            size: 3862
          }
        }
      }
    }
  }
  attr {
    key: "use_locking"
    value {
      b: true
    }
  }
  attr {
    key: "validate_shape"
    value {
      b: true
    }
  }
}
node {
  name: "save/Assign_4"
  op: "Assign"
  input: "tower/fully_connected/biases/Adam"
  input: "save/RestoreV2:4"
  device: "/device:CPU:0"
  attr {
    key: "T"
    value {
      type: DT_FLOAT
    }
  }
  attr {
    key: "_class"
    value {
      list {
        s: "loc:@tower/fully_connected/biases"
      }
    }
  }
  attr {
    key: "_output_shapes"
    value {
      list {
        shape {
          dim {
            size: 3862
          }
        }
      }
    }
  }
  attr {
    key: "use_locking"
    value {
      b: true
    }
  }
  attr {
    key: "validate_shape"
    value {
      b: true
    }
  }
}
node {
  name: "save/Assign_5"
  op: "Assign"
  input: "tower/fully_connected/biases/Adam_1"
  input: "save/RestoreV2:5"
  device: "/device:CPU:0"
  attr {
    key: "T"
    value {
      type: DT_FLOAT
    }
  }
  attr {
    key: "_class"
    value {
      list {
        s: "loc:@tower/fully_connected/biases"
      }
    }
  }
  attr {
    key: "_output_shapes"
    value {
      list {
        shape {
          dim {
            size: 3862
          }
        }
      }
    }
  }
  attr {
    key: "use_locking"
    value {
      b: true
    }
  }
  attr {
    key: "validate_shape"
    value {
      b: true
    }
  }
}
node {
  name: "save/Assign_6"
  op: "Assign"
  input: "tower/fully_connected/weights"
  input: "save/RestoreV2:6"
  device: "/device:CPU:0"
  attr {
    key: "T"
    value {
      type: DT_FLOAT
    }
  }
  attr {
    key: "_class"
    value {
      list {
        s: "loc:@tower/fully_connected/weights"
      }
    }
  }
  attr {
    key: "_output_shapes"
    value {
      list {
        shape {
          dim {
            size: 1152
          }
          dim {
            size: 3862
          }
        }
      }
    }
  }
  attr {
    key: "use_locking"
    value {
      b: true
    }
  }
  attr {
    key: "validate_shape"
    value {
      b: true
    }
  }
}
node {
  name: "save/Assign_7"
  op: "Assign"
  input: "tower/fully_connected/weights/Adam"
  input: "save/RestoreV2:7"
  device: "/device:CPU:0"
  attr {
    key: "T"
    value {
      type: DT_FLOAT
    }
  }
  attr {
    key: "_class"
    value {
      list {
        s: "loc:@tower/fully_connected/weights"
      }
    }
  }
  attr {
    key: "_output_shapes"
    value {
      list {
        shape {
          dim {
            size: 1152
          }
          dim {
            size: 3862
          }
        }
      }
    }
  }
  attr {
    key: "use_locking"
    value {
      b: true
    }
  }
  attr {
    key: "validate_shape"
    value {
      b: true
    }
  }
}
node {
  name: "save/Assign_8"
  op: "Assign"
  input: "tower/fully_connected/weights/Adam_1"
  input: "save/RestoreV2:8"
  device: "/device:CPU:0"
  attr {
    key: "T"
    value {
      type: DT_FLOAT
    }
  }
  attr {
    key: "_class"
    value {
      list {
        s: "loc:@tower/fully_connected/weights"
      }
    }
  }
  attr {
    key: "_output_shapes"
    value {
      list {
        shape {
          dim {
            size: 1152
          }
          dim {
            size: 3862
          }
        }
      }
    }
  }
  attr {
    key: "use_locking"
    value {
      b: true
    }
  }
  attr {
    key: "validate_shape"
    value {
      b: true
    }
  }
}
node {
  name: "save/restore_all/NoOp"
  op: "NoOp"
  input: "^save/Assign_2"
}
node {
  name: "save/restore_all/NoOp_1"
  op: "NoOp"
  input: "^save/Assign"
  input: "^save/Assign_1"
  input: "^save/Assign_3"
  input: "^save/Assign_4"
  input: "^save/Assign_5"
  input: "^save/Assign_6"
  input: "^save/Assign_7"
  input: "^save/Assign_8"
  device: "/device:CPU:0"
}
node {
  name: "save/restore_all"
  op: "NoOp"
  input: "^save/restore_all/NoOp"
  input: "^save/restore_all/NoOp_1"
}
node {
  name: "init/NoOp"
  op: "NoOp"
  input: "^global_step/Assign"
}
node {
  name: "init/NoOp_1"
  op: "NoOp"
  input: "^beta1_power/Assign"
  input: "^beta2_power/Assign"
  input: "^tower/fully_connected/biases/Adam/Assign"
  input: "^tower/fully_connected/biases/Adam_1/Assign"
  input: "^tower/fully_connected/biases/Assign"
  input: "^tower/fully_connected/weights/Adam/Assign"
  input: "^tower/fully_connected/weights/Adam_1/Assign"
  input: "^tower/fully_connected/weights/Assign"
  device: "/device:CPU:0"
}
node {
  name: "init"
  op: "NoOp"
  input: "^init/NoOp"
  input: "^init/NoOp_1"
}
node {
  name: "report_uninitialized_variables/IsVariableInitialized"
  op: "IsVariableInitialized"
  input: "global_step"
  attr {
    key: "_class"
    value {
      list {
        s: "loc:@global_step"
      }
    }
  }
  attr {
    key: "_output_shapes"
    value {
      list {
        shape {
        }
      }
    }
  }
  attr {
    key: "dtype"
    value {
      type: DT_INT32
    }
  }
}
node {
  name: "report_uninitialized_variables/IsVariableInitialized_1"
  op: "IsVariableInitialized"
  input: "tower/fully_connected/weights"
  device: "/device:CPU:0"
  attr {
    key: "_class"
    value {
      list {
        s: "loc:@tower/fully_connected/weights"
      }
    }
  }
  attr {
    key: "_output_shapes"
    value {
      list {
        shape {
        }
      }
    }
  }
  attr {
    key: "dtype"
    value {
      type: DT_FLOAT
    }
  }
}
node {
  name: "report_uninitialized_variables/IsVariableInitialized_2"
  op: "IsVariableInitialized"
  input: "tower/fully_connected/biases"
  device: "/device:CPU:0"
  attr {
    key: "_class"
    value {
      list {
        s: "loc:@tower/fully_connected/biases"
      }
    }
  }
  attr {
    key: "_output_shapes"
    value {
      list {
        shape {
        }
      }
    }
  }
  attr {
    key: "dtype"
    value {
      type: DT_FLOAT
    }
  }
}
node {
  name: "report_uninitialized_variables/IsVariableInitialized_3"
  op: "IsVariableInitialized"
  input: "beta1_power"
  device: "/device:CPU:0"
  attr {
    key: "_class"
    value {
      list {
        s: "loc:@tower/fully_connected/biases"
      }
    }
  }
  attr {
    key: "_output_shapes"
    value {
      list {
        shape {
        }
      }
    }
  }
  attr {
    key: "dtype"
    value {
      type: DT_FLOAT
    }
  }
}
node {
  name: "report_uninitialized_variables/IsVariableInitialized_4"
  op: "IsVariableInitialized"
  input: "beta2_power"
  device: "/device:CPU:0"
  attr {
    key: "_class"
    value {
      list {
        s: "loc:@tower/fully_connected/biases"
      }
    }
  }
  attr {
    key: "_output_shapes"
    value {
      list {
        shape {
        }
      }
    }
  }
  attr {
    key: "dtype"
    value {
      type: DT_FLOAT
    }
  }
}
node {
  name: "report_uninitialized_variables/IsVariableInitialized_5"
  op: "IsVariableInitialized"
  input: "tower/fully_connected/weights/Adam"
  device: "/device:CPU:0"
  attr {
    key: "_class"
    value {
      list {
        s: "loc:@tower/fully_connected/weights"
      }
    }
  }
  attr {
    key: "_output_shapes"
    value {
      list {
        shape {
        }
      }
    }
  }
  attr {
    key: "dtype"
    value {
      type: DT_FLOAT
    }
  }
}
node {
  name: "report_uninitialized_variables/IsVariableInitialized_6"
  op: "IsVariableInitialized"
  input: "tower/fully_connected/weights/Adam_1"
  device: "/device:CPU:0"
  attr {
    key: "_class"
    value {
      list {
        s: "loc:@tower/fully_connected/weights"
      }
    }
  }
  attr {
    key: "_output_shapes"
    value {
      list {
        shape {
        }
      }
    }
  }
  attr {
    key: "dtype"
    value {
      type: DT_FLOAT
    }
  }
}
node {
  name: "report_uninitialized_variables/IsVariableInitialized_7"
  op: "IsVariableInitialized"
  input: "tower/fully_connected/biases/Adam"
  device: "/device:CPU:0"
  attr {
    key: "_class"
    value {
      list {
        s: "loc:@tower/fully_connected/biases"
      }
    }
  }
  attr {
    key: "_output_shapes"
    value {
      list {
        shape {
        }
      }
    }
  }
  attr {
    key: "dtype"
    value {
      type: DT_FLOAT
    }
  }
}
node {
  name: "report_uninitialized_variables/IsVariableInitialized_8"
  op: "IsVariableInitialized"
  input: "tower/fully_connected/biases/Adam_1"
  device: "/device:CPU:0"
  attr {
    key: "_class"
    value {
      list {
        s: "loc:@tower/fully_connected/biases"
      }
    }
  }
  attr {
    key: "_output_shapes"
    value {
      list {
        shape {
        }
      }
    }
  }
  attr {
    key: "dtype"
    value {
      type: DT_FLOAT
    }
  }
}
node {
  name: "report_uninitialized_variables/IsVariableInitialized_9"
  op: "IsVariableInitialized"
  input: "train_input/input_producer/limit_epochs/epochs"
  attr {
    key: "_class"
    value {
      list {
        s: "loc:@train_input/input_producer/limit_epochs/epochs"
      }
    }
  }
  attr {
    key: "_output_shapes"
    value {
      list {
        shape {
        }
      }
    }
  }
  attr {
    key: "dtype"
    value {
      type: DT_INT64
    }
  }
}
node {
  name: "report_uninitialized_variables/stack"
  op: "Pack"
  input: "report_uninitialized_variables/IsVariableInitialized"
  input: "report_uninitialized_variables/IsVariableInitialized_1"
  input: "report_uninitialized_variables/IsVariableInitialized_2"
  input: "report_uninitialized_variables/IsVariableInitialized_3"
  input: "report_uninitialized_variables/IsVariableInitialized_4"
  input: "report_uninitialized_variables/IsVariableInitialized_5"
  input: "report_uninitialized_variables/IsVariableInitialized_6"
  input: "report_uninitialized_variables/IsVariableInitialized_7"
  input: "report_uninitialized_variables/IsVariableInitialized_8"
  input: "report_uninitialized_variables/IsVariableInitialized_9"
  device: "/device:CPU:0"
  attr {
    key: "N"
    value {
      i: 10
    }
  }
  attr {
    key: "T"
    value {
      type: DT_BOOL
    }
  }
  attr {
    key: "_output_shapes"
    value {
      list {
        shape {
          dim {
            size: 10
          }
        }
      }
    }
  }
  attr {
    key: "axis"
    value {
      i: 0
    }
  }
}
node {
  name: "report_uninitialized_variables/LogicalNot"
  op: "LogicalNot"
  input: "report_uninitialized_variables/stack"
  device: "/device:CPU:0"
  attr {
    key: "_output_shapes"
    value {
      list {
        shape {
          dim {
            size: 10
          }
        }
      }
    }
  }
}
node {
  name: "report_uninitialized_variables/Const"
  op: "Const"
  device: "/device:CPU:0"
  attr {
    key: "_output_shapes"
    value {
      list {
        shape {
          dim {
            size: 10
          }
        }
      }
    }
  }
  attr {
    key: "dtype"
    value {
      type: DT_STRING
    }
  }
  attr {
    key: "value"
    value {
      tensor {
        dtype: DT_STRING
        tensor_shape {
          dim {
            size: 10
          }
        }
        string_val: "global_step"
        string_val: "tower/fully_connected/weights"
        string_val: "tower/fully_connected/biases"
        string_val: "beta1_power"
        string_val: "beta2_power"
        string_val: "tower/fully_connected/weights/Adam"
        string_val: "tower/fully_connected/weights/Adam_1"
        string_val: "tower/fully_connected/biases/Adam"
        string_val: "tower/fully_connected/biases/Adam_1"
        string_val: "train_input/input_producer/limit_epochs/epochs"
      }
    }
  }
}
node {
  name: "report_uninitialized_variables/boolean_mask/Shape"
  op: "Const"
  device: "/device:CPU:0"
  attr {
    key: "_output_shapes"
    value {
      list {
        shape {
          dim {
            size: 1
          }
        }
      }
    }
  }
  attr {
    key: "dtype"
    value {
      type: DT_INT32
    }
  }
  attr {
    key: "value"
    value {
      tensor {
        dtype: DT_INT32
        tensor_shape {
          dim {
            size: 1
          }
        }
        int_val: 10
      }
    }
  }
}
node {
  name: "report_uninitialized_variables/boolean_mask/strided_slice/stack"
  op: "Const"
  device: "/device:CPU:0"
  attr {
    key: "_output_shapes"
    value {
      list {
        shape {
          dim {
            size: 1
          }
        }
      }
    }
  }
  attr {
    key: "dtype"
    value {
      type: DT_INT32
    }
  }
  attr {
    key: "value"
    value {
      tensor {
        dtype: DT_INT32
        tensor_shape {
          dim {
            size: 1
          }
        }
        int_val: 0
      }
    }
  }
}
node {
  name: "report_uninitialized_variables/boolean_mask/strided_slice/stack_1"
  op: "Const"
  device: "/device:CPU:0"
  attr {
    key: "_output_shapes"
    value {
      list {
        shape {
          dim {
            size: 1
          }
        }
      }
    }
  }
  attr {
    key: "dtype"
    value {
      type: DT_INT32
    }
  }
  attr {
    key: "value"
    value {
      tensor {
        dtype: DT_INT32
        tensor_shape {
          dim {
            size: 1
          }
        }
        int_val: 1
      }
    }
  }
}
node {
  name: "report_uninitialized_variables/boolean_mask/strided_slice/stack_2"
  op: "Const"
  device: "/device:CPU:0"
  attr {
    key: "_output_shapes"
    value {
      list {
        shape {
          dim {
            size: 1
          }
        }
      }
    }
  }
  attr {
    key: "dtype"
    value {
      type: DT_INT32
    }
  }
  attr {
    key: "value"
    value {
      tensor {
        dtype: DT_INT32
        tensor_shape {
          dim {
            size: 1
          }
        }
        int_val: 1
      }
    }
  }
}
node {
  name: "report_uninitialized_variables/boolean_mask/strided_slice"
  op: "StridedSlice"
  input: "report_uninitialized_variables/boolean_mask/Shape"
  input: "report_uninitialized_variables/boolean_mask/strided_slice/stack"
  input: "report_uninitialized_variables/boolean_mask/strided_slice/stack_1"
  input: "report_uninitialized_variables/boolean_mask/strided_slice/stack_2"
  device: "/device:CPU:0"
  attr {
    key: "Index"
    value {
      type: DT_INT32
    }
  }
  attr {
    key: "T"
    value {
      type: DT_INT32
    }
  }
  attr {
    key: "_output_shapes"
    value {
      list {
        shape {
          dim {
            size: 1
          }
        }
      }
    }
  }
  attr {
    key: "begin_mask"
    value {
      i: 0
    }
  }
  attr {
    key: "ellipsis_mask"
    value {
      i: 0
    }
  }
  attr {
    key: "end_mask"
    value {
      i: 0
    }
  }
  attr {
    key: "new_axis_mask"
    value {
      i: 0
    }
  }
  attr {
    key: "shrink_axis_mask"
    value {
      i: 0
    }
  }
}
node {
  name: "report_uninitialized_variables/boolean_mask/Prod/reduction_indices"
  op: "Const"
  device: "/device:CPU:0"
  attr {
    key: "_output_shapes"
    value {
      list {
        shape {
          dim {
            size: 1
          }
        }
      }
    }
  }
  attr {
    key: "dtype"
    value {
      type: DT_INT32
    }
  }
  attr {
    key: "value"
    value {
      tensor {
        dtype: DT_INT32
        tensor_shape {
          dim {
            size: 1
          }
        }
        int_val: 0
      }
    }
  }
}
node {
  name: "report_uninitialized_variables/boolean_mask/Prod"
  op: "Prod"
  input: "report_uninitialized_variables/boolean_mask/strided_slice"
  input: "report_uninitialized_variables/boolean_mask/Prod/reduction_indices"
  device: "/device:CPU:0"
  attr {
    key: "T"
    value {
      type: DT_INT32
    }
  }
  attr {
    key: "Tidx"
    value {
      type: DT_INT32
    }
  }
  attr {
    key: "_output_shapes"
    value {
      list {
        shape {
        }
      }
    }
  }
  attr {
    key: "keep_dims"
    value {
      b: false
    }
  }
}
node {
  name: "report_uninitialized_variables/boolean_mask/Shape_1"
  op: "Const"
  device: "/device:CPU:0"
  attr {
    key: "_output_shapes"
    value {
      list {
        shape {
          dim {
            size: 1
          }
        }
      }
    }
  }
  attr {
    key: "dtype"
    value {
      type: DT_INT32
    }
  }
  attr {
    key: "value"
    value {
      tensor {
        dtype: DT_INT32
        tensor_shape {
          dim {
            size: 1
          }
        }
        int_val: 10
      }
    }
  }
}
node {
  name: "report_uninitialized_variables/boolean_mask/strided_slice_1/stack"
  op: "Const"
  device: "/device:CPU:0"
  attr {
    key: "_output_shapes"
    value {
      list {
        shape {
          dim {
            size: 1
          }
        }
      }
    }
  }
  attr {
    key: "dtype"
    value {
      type: DT_INT32
    }
  }
  attr {
    key: "value"
    value {
      tensor {
        dtype: DT_INT32
        tensor_shape {
          dim {
            size: 1
          }
        }
        int_val: 0
      }
    }
  }
}
node {
  name: "report_uninitialized_variables/boolean_mask/strided_slice_1/stack_1"
  op: "Const"
  device: "/device:CPU:0"
  attr {
    key: "_output_shapes"
    value {
      list {
        shape {
          dim {
            size: 1
          }
        }
      }
    }
  }
  attr {
    key: "dtype"
    value {
      type: DT_INT32
    }
  }
  attr {
    key: "value"
    value {
      tensor {
        dtype: DT_INT32
        tensor_shape {
          dim {
            size: 1
          }
        }
        int_val: 0
      }
    }
  }
}
node {
  name: "report_uninitialized_variables/boolean_mask/strided_slice_1/stack_2"
  op: "Const"
  device: "/device:CPU:0"
  attr {
    key: "_output_shapes"
    value {
      list {
        shape {
          dim {
            size: 1
          }
        }
      }
    }
  }
  attr {
    key: "dtype"
    value {
      type: DT_INT32
    }
  }
  attr {
    key: "value"
    value {
      tensor {
        dtype: DT_INT32
        tensor_shape {
          dim {
            size: 1
          }
        }
        int_val: 1
      }
    }
  }
}
node {
  name: "report_uninitialized_variables/boolean_mask/strided_slice_1"
  op: "StridedSlice"
  input: "report_uninitialized_variables/boolean_mask/Shape_1"
  input: "report_uninitialized_variables/boolean_mask/strided_slice_1/stack"
  input: "report_uninitialized_variables/boolean_mask/strided_slice_1/stack_1"
  input: "report_uninitialized_variables/boolean_mask/strided_slice_1/stack_2"
  device: "/device:CPU:0"
  attr {
    key: "Index"
    value {
      type: DT_INT32
    }
  }
  attr {
    key: "T"
    value {
      type: DT_INT32
    }
  }
  attr {
    key: "_output_shapes"
    value {
      list {
        shape {
          dim {
          }
        }
      }
    }
  }
  attr {
    key: "begin_mask"
    value {
      i: 1
    }
  }
  attr {
    key: "ellipsis_mask"
    value {
      i: 0
    }
  }
  attr {
    key: "end_mask"
    value {
      i: 0
    }
  }
  attr {
    key: "new_axis_mask"
    value {
      i: 0
    }
  }
  attr {
    key: "shrink_axis_mask"
    value {
      i: 0
    }
  }
}
node {
  name: "report_uninitialized_variables/boolean_mask/Shape_2"
  op: "Const"
  device: "/device:CPU:0"
  attr {
    key: "_output_shapes"
    value {
      list {
        shape {
          dim {
            size: 1
          }
        }
      }
    }
  }
  attr {
    key: "dtype"
    value {
      type: DT_INT32
    }
  }
  attr {
    key: "value"
    value {
      tensor {
        dtype: DT_INT32
        tensor_shape {
          dim {
            size: 1
          }
        }
        int_val: 10
      }
    }
  }
}
node {
  name: "report_uninitialized_variables/boolean_mask/strided_slice_2/stack"
  op: "Const"
  device: "/device:CPU:0"
  attr {
    key: "_output_shapes"
    value {
      list {
        shape {
          dim {
            size: 1
          }
        }
      }
    }
  }
  attr {
    key: "dtype"
    value {
      type: DT_INT32
    }
  }
  attr {
    key: "value"
    value {
      tensor {
        dtype: DT_INT32
        tensor_shape {
          dim {
            size: 1
          }
        }
        int_val: 1
      }
    }
  }
}
node {
  name: "report_uninitialized_variables/boolean_mask/strided_slice_2/stack_1"
  op: "Const"
  device: "/device:CPU:0"
  attr {
    key: "_output_shapes"
    value {
      list {
        shape {
          dim {
            size: 1
          }
        }
      }
    }
  }
  attr {
    key: "dtype"
    value {
      type: DT_INT32
    }
  }
  attr {
    key: "value"
    value {
      tensor {
        dtype: DT_INT32
        tensor_shape {
          dim {
            size: 1
          }
        }
        int_val: 0
      }
    }
  }
}
node {
  name: "report_uninitialized_variables/boolean_mask/strided_slice_2/stack_2"
  op: "Const"
  device: "/device:CPU:0"
  attr {
    key: "_output_shapes"
    value {
      list {
        shape {
          dim {
            size: 1
          }
        }
      }
    }
  }
  attr {
    key: "dtype"
    value {
      type: DT_INT32
    }
  }
  attr {
    key: "value"
    value {
      tensor {
        dtype: DT_INT32
        tensor_shape {
          dim {
            size: 1
          }
        }
        int_val: 1
      }
    }
  }
}
node {
  name: "report_uninitialized_variables/boolean_mask/strided_slice_2"
  op: "StridedSlice"
  input: "report_uninitialized_variables/boolean_mask/Shape_2"
  input: "report_uninitialized_variables/boolean_mask/strided_slice_2/stack"
  input: "report_uninitialized_variables/boolean_mask/strided_slice_2/stack_1"
  input: "report_uninitialized_variables/boolean_mask/strided_slice_2/stack_2"
  device: "/device:CPU:0"
  attr {
    key: "Index"
    value {
      type: DT_INT32
    }
  }
  attr {
    key: "T"
    value {
      type: DT_INT32
    }
  }
  attr {
    key: "_output_shapes"
    value {
      list {
        shape {
          dim {
          }
        }
      }
    }
  }
  attr {
    key: "begin_mask"
    value {
      i: 0
    }
  }
  attr {
    key: "ellipsis_mask"
    value {
      i: 0
    }
  }
  attr {
    key: "end_mask"
    value {
      i: 1
    }
  }
  attr {
    key: "new_axis_mask"
    value {
      i: 0
    }
  }
  attr {
    key: "shrink_axis_mask"
    value {
      i: 0
    }
  }
}
node {
  name: "report_uninitialized_variables/boolean_mask/concat/values_1"
  op: "Pack"
  input: "report_uninitialized_variables/boolean_mask/Prod"
  device: "/device:CPU:0"
  attr {
    key: "N"
    value {
      i: 1
    }
  }
  attr {
    key: "T"
    value {
      type: DT_INT32
    }
  }
  attr {
    key: "_output_shapes"
    value {
      list {
        shape {
          dim {
            size: 1
          }
        }
      }
    }
  }
  attr {
    key: "axis"
    value {
      i: 0
    }
  }
}
node {
  name: "report_uninitialized_variables/boolean_mask/concat/axis"
  op: "Const"
  device: "/device:CPU:0"
  attr {
    key: "_output_shapes"
    value {
      list {
        shape {
        }
      }
    }
  }
  attr {
    key: "dtype"
    value {
      type: DT_INT32
    }
  }
  attr {
    key: "value"
    value {
      tensor {
        dtype: DT_INT32
        tensor_shape {
        }
        int_val: 0
      }
    }
  }
}
node {
  name: "report_uninitialized_variables/boolean_mask/concat"
  op: "ConcatV2"
  input: "report_uninitialized_variables/boolean_mask/strided_slice_1"
  input: "report_uninitialized_variables/boolean_mask/concat/values_1"
  input: "report_uninitialized_variables/boolean_mask/strided_slice_2"
  input: "report_uninitialized_variables/boolean_mask/concat/axis"
  device: "/device:CPU:0"
  attr {
    key: "N"
    value {
      i: 3
    }
  }
  attr {
    key: "T"
    value {
      type: DT_INT32
    }
  }
  attr {
    key: "Tidx"
    value {
      type: DT_INT32
    }
  }
  attr {
    key: "_output_shapes"
    value {
      list {
        shape {
          dim {
            size: 1
          }
        }
      }
    }
  }
}
node {
  name: "report_uninitialized_variables/boolean_mask/Reshape"
  op: "Reshape"
  input: "report_uninitialized_variables/Const"
  input: "report_uninitialized_variables/boolean_mask/concat"
  device: "/device:CPU:0"
  attr {
    key: "T"
    value {
      type: DT_STRING
    }
  }
  attr {
    key: "Tshape"
    value {
      type: DT_INT32
    }
  }
  attr {
    key: "_output_shapes"
    value {
      list {
        shape {
          dim {
            size: 10
          }
        }
      }
    }
  }
}
node {
  name: "report_uninitialized_variables/boolean_mask/Reshape_1/shape"
  op: "Const"
  device: "/device:CPU:0"
  attr {
    key: "_output_shapes"
    value {
      list {
        shape {
          dim {
            size: 1
          }
        }
      }
    }
  }
  attr {
    key: "dtype"
    value {
      type: DT_INT32
    }
  }
  attr {
    key: "value"
    value {
      tensor {
        dtype: DT_INT32
        tensor_shape {
          dim {
            size: 1
          }
        }
        int_val: -1
      }
    }
  }
}
node {
  name: "report_uninitialized_variables/boolean_mask/Reshape_1"
  op: "Reshape"
  input: "report_uninitialized_variables/LogicalNot"
  input: "report_uninitialized_variables/boolean_mask/Reshape_1/shape"
  device: "/device:CPU:0"
  attr {
    key: "T"
    value {
      type: DT_BOOL
    }
  }
  attr {
    key: "Tshape"
    value {
      type: DT_INT32
    }
  }
  attr {
    key: "_output_shapes"
    value {
      list {
        shape {
          dim {
            size: 10
          }
        }
      }
    }
  }
}
node {
  name: "report_uninitialized_variables/boolean_mask/Where"
  op: "Where"
  input: "report_uninitialized_variables/boolean_mask/Reshape_1"
  device: "/device:CPU:0"
  attr {
    key: "T"
    value {
      type: DT_BOOL
    }
  }
  attr {
    key: "_output_shapes"
    value {
      list {
        shape {
          dim {
            size: -1
          }
          dim {
            size: 1
          }
        }
      }
    }
  }
}
node {
  name: "report_uninitialized_variables/boolean_mask/Squeeze"
  op: "Squeeze"
  input: "report_uninitialized_variables/boolean_mask/Where"
  device: "/device:CPU:0"
  attr {
    key: "T"
    value {
      type: DT_INT64
    }
  }
  attr {
    key: "_output_shapes"
    value {
      list {
        shape {
          dim {
            size: -1
          }
        }
      }
    }
  }
  attr {
    key: "squeeze_dims"
    value {
      list {
        i: 1
      }
    }
  }
}
node {
  name: "report_uninitialized_variables/boolean_mask/GatherV2/axis"
  op: "Const"
  device: "/device:CPU:0"
  attr {
    key: "_output_shapes"
    value {
      list {
        shape {
        }
      }
    }
  }
  attr {
    key: "dtype"
    value {
      type: DT_INT32
    }
  }
  attr {
    key: "value"
    value {
      tensor {
        dtype: DT_INT32
        tensor_shape {
        }
        int_val: 0
      }
    }
  }
}
node {
  name: "report_uninitialized_variables/boolean_mask/GatherV2"
  op: "GatherV2"
  input: "report_uninitialized_variables/boolean_mask/Reshape"
  input: "report_uninitialized_variables/boolean_mask/Squeeze"
  input: "report_uninitialized_variables/boolean_mask/GatherV2/axis"
  device: "/device:CPU:0"
  attr {
    key: "Taxis"
    value {
      type: DT_INT32
    }
  }
  attr {
    key: "Tindices"
    value {
      type: DT_INT64
    }
  }
  attr {
    key: "Tparams"
    value {
      type: DT_STRING
    }
  }
  attr {
    key: "_output_shapes"
    value {
      list {
        shape {
          dim {
            size: -1
          }
        }
      }
    }
  }
  attr {
    key: "batch_dims"
    value {
      i: 0
    }
  }
}
node {
  name: "init_1"
  op: "NoOp"
  input: "^train_input/input_producer/limit_epochs/epochs/Assign"
}
node {
  name: "init_all_tables"
  op: "NoOp"
}
node {
  name: "group_deps"
  op: "NoOp"
  input: "^init_1"
  input: "^init_all_tables"
}
node {
  name: "Merge/MergeSummary"
  op: "MergeSummary"
  input: "learning_rate"
  input: "train_input/input_producer/fraction_of_32_full"
  input: "train_input/shuffle_batch_join/fraction_over_1024_of_4096_full"
  input: "model/input_raw"
  input: "tower/tower/fully_connected/weights"
  input: "tower/tower/fully_connected/biases"
  input: "label_loss"
  input: "reg_loss"
  attr {
    key: "N"
    value {
      i: 8
    }
  }
  attr {
    key: "_output_shapes"
    value {
      list {
        shape {
        }
      }
    }
  }
}
versions {
  producer: 134
}
